Results/pikan_2d_model_fixed.pth (torch, 76942 bytes, 19 tensors)

layers.0.linear.weight f4 [32, 2]
000000 d2 c3 1b 3f 2e 5b 15 3c 78 a1 c8 be 6c 9b 25 bf
       0.60845673 0.009115977 -0.3918569 -0.6469028
000010 99 5b 96 3e b3 f5 e6 3e e8 2c aa be b0 01 0a be
       0.29366758 0.4510933 -0.33237386 -0.13477206
000020 f8 0c 6f be 46 6c 21 3f 90 58 01 3f d4 5b 2d 3f
       -0.23344791 0.6305584 0.5052576 0.67718244
000030 78 a3 f7 3d 42 37 4b be a3 97 2f bf 72 12 b5 bd
       0.12091726 -0.19845298 -0.68590754 -0.08841409
000040 d7 05 dd be 62 1f fe 3e 5c 77 f5 3e f8 5a 23 3e
       -0.43168518 0.49633318 0.47942626 0.1595267
000050 9b 09 d1 be c0 df 12 bf 25 0c e0 3c 38 38 0d 3f
       -0.4082764 -0.57372665 0.027349541 0.5516391
000060 76 44 13 3e 4c 41 8c be f1 78 fc 3e f9 ec 19 be
       0.14381585 -0.27393568 0.4931102 -0.15031804
000070 8c b0 12 3e f6 b0 17 3e 19 d4 d3 3e fb bc a1 bd
       0.1432516 0.14813599 0.41372755 -0.07897373
000080 9f 44 20 bf cb 03 75 bd 7d de c0 be db 6f f7 3e
       -0.6260471 -0.05981807 -0.37669745 0.48327526
000090 a5 c5 14 bf 18 fb 32 3f 98 9a 8c 3e 7a f3 03 3f
       -0.5811408 0.6991439 0.27461696 0.5154339
0000a0 af c7 e5 3e 4a 5d ec bd 65 35 ae bd fb 90 36 3f
       0.4487891 -0.11541231 -0.08506278 0.7131497
0000b0 5d c4 cc 3e 9d 7d ac 3d dd 78 1a bd ce 18 8d be
       0.39993563 0.08422396 -0.03771292 -0.27557987
0000c0 ab 3a 23 bf 17 3a fa 3d 1a a2 f2 3d c4 4c f6 3e
       -0.63761395 0.12218111 0.11847325 0.48105443
0000d0 a5 9d be 3e a2 ee 13 3f 77 38 21 bd ca 71 c4 3e
       0.37229648 0.57786 -0.03936049 0.38368064
0000e0 c5 c8 2a 3e ce 2b 8c bd 20 3c b4 be 68 aa 24 3f
       0.1667815 -0.068442926 -0.35202122 0.6432252
0000f0 f2 8a 8b 3d 3b d9 d7 3e 47 31 d9 be b4 4a 2b bf
       0.06813611 0.4215792 -0.42420408 -0.6691086

layers.0.linear.bias f4 [32]
000000 7f 44 98 be bd 96 8e 3e 85 e9 bc 3e 08 5f b4 3e
       -0.29739758 0.2784938 0.3689691 0.35228753
000010 d0 15 c4 be 55 02 64 be 7e d0 95 be 99 c6 a7 be
       -0.38297892 -0.22266515 -0.2926063 -0.32768705
000020 ad 2e 80 bb 60 ae af 3e ea 63 e9 be 03 d2 2d 3e
       -0.003911814 0.34312725 -0.4558404 0.16974644
000030 19 27 29 be 10 73 0b 3f b5 eb b0 be 49 4a 69 be
       -0.16518821 0.54472446 -0.3455483 -0.22782244
000040 4a f7 5c be 01 fd 1f bf 17 62 0a 3e 17 e0 2b bf
       -0.21578708 -0.6249543 0.13513981 -0.6713881
000050 ae 17 28 3f c3 65 97 3c 66 9f 16 be 21 74 d1 3e
       0.6566113 0.018481141 -0.14709243 0.40908912
000060 5b 19 ee be 44 99 31 be fc 86 87 be 64 b5 0e bf
       -0.4650372 -0.17343622 -0.26470172 -0.5574553
000070 47 fa d2 3d fc 59 2d 3f d3 96 87 be cd f0 54 be
       0.10301643 0.6771543 -0.26482257 -0.20794983

layers.0.nonlinear.0.weight f4 [32, 32]
000000 22 01 a1 3d 1b c6 ca bb 28 2e 2c be 0e ea 92 bd
       0.07861544 -0.006188167 -0.16814482 -0.07173549
000010 61 56 fa 3d 66 82 1e be 3e e1 44 3d 31 40 59 bd
       0.12223507 -0.1547943 0.04806637 -0.053039733
000020 11 53 1f 3b 92 8b 21 3e a3 ef f2 3c af f7 58 bd
       0.0024310986 0.15775898 0.029655283 -0.052970584
000030 3e d8 b1 3d 28 2c d8 3d 10 48 b5 bd d1 93 1a be
       0.08683823 0.10555297 -0.088516355 -0.1509545
000040 8e a7 51 be f7 d6 89 3d 0a ce a1 3d 97 fb 14 be
       -0.20474073 0.067304544 0.07900627 -0.14549099
000050 e3 d9 00 be fc 49 0c be d3 26 d2 bd 13 5a de bd
       -0.12583117 -0.13700098 -0.102613114 -0.10857024
000060 04 da da 3a d1 e0 00 be d8 77 28 3d a8 82 03 3e
       0.0016697054 -0.1258576 0.041129917 0.1284281
000070 f7 01 02 be 0c ee cf bd 83 5a b7 3d ab f7 fa 3d
       -0.12696062 -0.10152826 0.089528106 0.1225427
000080 2e f4 8e 3d ff 2d a9 3d 38 53 9a 3c 0a 6e dd 3d
       0.06980167 0.08260726 0.01883851 0.10812004
000090 e2 4f e2 bc 49 26 db bd 07 ba 01 be 93 26 01 be
       -0.027625982 -0.10700662 -0.1266862 -0.12612371
0000a0 4c 0b d2 3d 20 70 34 3e 02 e3 3c 3d 6a d0 35 3e
       0.10256061 0.17620897 0.04611493 0.17755285
0000b0 45 4a 18 be e9 32 bb bd 61 c5 06 be 81 81 c1 3d
       -0.14872082 -0.0914057 -0.13161232 0.09448529
0000c0 1f 92 da 3d 2f 0b c4 3c db c5 12 be f9 6d 45 3e
       0.10672402 0.023931114 -0.14333288 0.19280232
0000d0 74 7b c2 3d 03 f9 44 3d 28 6c 85 bd 4e 03 ba bd
       0.09496203 0.04808904 -0.0651477 -0.090826616
0000e0 42 2c dc 3d 10 db f8 bd 7d 4a 46 3e d0 78 ec bd
       0.10750629 -0.12151158 0.19364353 -0.11546481
0000f0 34 d1 9e bd d9 95 7a bd 80 2f e2 bd ff f5 1c be
       -0.07754746 -0.061178062 -0.11044216 -0.15328215
000100 ed da 57 3d 0b 3a aa bd 92 ab b6 bd e1 d1 f1 bd
       0.05269902 -0.08311852 -0.08919443 -0.11807609
000110 7e 9a cf 3d c3 4b b2 3d f5 3e 99 bd db 73 2f 3e
       0.10136889 0.08705857 -0.07482711 0.17134039
000120 67 be c5 3c 41 d8 1b bc 5c ee 80 bd 4e 2f 42 3b
       0.024138642 -0.009512008 -0.062954634 0.0029630247
000130 aa 83 a3 3d 2f 8d 22 3e ce ea ca bd fa 06 e2 3c
       0.07984097 0.1587417 -0.09908067 0.027591217
000140 ad a3 a9 bd d4 cb 9f 3d 6d 2c fa 3d 75 e4 13 be
       -0.08283172 0.07802549 0.12215505 -0.14442618
000150 9d 02 19 3d f8 7f 17 3c b6 2c df bd d5 11 f4 bd
       0.037356008 0.009246819 -0.108972 -0.11917464
000160 b7 f4 2a 3e 0f 5e f1 3a 92 42 9c 3c 31 95 a4 3c
       0.16694914 0.0018414872 0.019074712 0.020090671
000170 28 83 17 bd 35 7e 74 3d 5c ea 14 be 50 44 47 3e
       -0.036990315 0.059690673 -0.14542526 0.19459653
000180 fc 46 21 bd 6e 20 03 bd 9d 56 38 bd ed 4c db bd
       -0.039374337 -0.03201335 -0.045004476 -0.10708032
000190 18 2a 24 be 28 bd 20 3e 26 02 fa 3d f7 3c 19 be
       -0.16031682 0.15697157 0.12207441 -0.14964662
0001a0 2d 3d 90 b7 27 a0 c4 bc b3 83 98 3d 95 41 e8 bd
       -1.7194625e-05 -0.024002148 0.07446995 -0.11340634
0001b0 55 fc 72 3b 3a e4 98 3d cc 01 1a 3e 98 22 a9 3c
       0.003707667 0.07465406 0.15039748 0.020646378
0001c0 cd 5f ec 3c 48 70 9d bd 9d 76 d7 bd 20 c0 13 3e
       0.028854275 -0.076874316 -0.105206706 0.14428759
0001d0 88 73 04 be 41 c5 e7 3d 2d 22 2c 3e 2f bf 9d 39
       -0.12934697 0.1131692 0.16809912 0.00030087816
0001e0 17 9d 3d 3c 1c 27 c6 3d 84 b2 08 be 3b 8b 45 bc
       0.011573098 0.09675428 -0.13349348 -0.012057121
0001f0 bd 90 a8 3d 58 28 30 be 55 7f 2c 3e 04 3b 9b bb
       0.08230732 -0.1720289 0.16845448 -0.00473726
000200 9f bc 0b 3e 7d a9 1f 3e 2d f7 df bd cc 64 0c be
       0.13646172 0.15591998 -0.10935817 -0.13710326
000210 86 53 da bc 34 7d 11 3e aa 99 13 be 0c e1 1c 3d
       -0.026651155 0.14207917 -0.14414087 0.03830056
000220 f1 e7 09 3e cc 71 2e 3e 9e a3 1b 3e 8f 32 56 bd
       0.13467385 0.17035598 0.15199134 -0.05229431
000230 ea 3d 94 bd f2 51 dc bd c4 78 3f be 07 29 18 3d
       -0.07238372 -0.10757817 -0.18698412 0.0371485
000240 3a 44 19 be 54 aa 13 3c 29 07 7a bc a5 73 a8 bd
       -0.14967433 0.009012777 -0.015260496 -0.082251824
000250 e4 04 b9 bd f2 22 2a be b2 1e ef bd c5 d1 a2 bd
       -0.09034136 -0.16614893 -0.116757765 -0.079501666
000260 4d 30 af bd 21 b1 9d bd 80 e4 01 3e df f3 f8 3d
       -0.085541345 -0.076998 0.12684822 0.1215589
000270 ce a0 58 bd f0 71 8e 3d 42 b8 0c be 73 86 e8 bd
       -0.05288773 0.069553256 -0.13742164 -0.11353769
000280 10 1c 08 3e 80 2b cc bd 0d e9 2e 3d 44 64 89 bd
       0.13291955 -0.099692345 0.042702723 -0.06708577
000290 d7 cf 3a bc 73 03 d8 bb e0 29 36 3e 94 91 03 be
       -0.011402092 -0.006592208 0.17789412 -0.12848502
0002a0 57 8a b2 bd 7e d8 1b 3e 7f 5d 8e 3d 97 6e 8a 3d
       -0.087177925 0.15219304 0.06951427 0.067593746
0002b0 a7 4a 2d 3e 14 dd 80 3d 56 4a 8a 3c 68 f7 09 3c
       0.16923009 0.06292167 0.01688115 0.008420803
0002c0 7d ff b8 3d 69 b7 7f bd 87 58 e2 3d bb 5d 3e 3e
       0.090331055 -0.062430773 0.110520415 0.18590443
0002d0 fe cb d7 b9 5e f1 9e 3c cd 53 2d 3e d2 92 f9 3d
       -0.00041159982 0.019402202 0.16926499 0.12186207
0002e0 cb d8 17 be ae 8f d1 3d 66 1f 88 3b 81 e3 14 3e
       -0.14828794 0.10232483 0.0041541336 0.14539911
0002f0 54 c5 22 bd d8 44 1d be f6 92 ff 3d 45 53 ff bd
       -0.039738968 -0.15358293 0.124792024 -0.12467054
000300 33 43 4b be 30 9d 93 3c fa 23 ce ba 5f 87 c7 3d
       -0.19849853 0.018019289 -0.0015727275 0.09742617
000310 da bd 7b bd 62 cf 95 3b 4a 46 4e 3d 62 0c 1c 3e
       -0.061460353 0.004571841 0.05036 0.15239099
000320 11 fe 67 3d e9 58 f7 bd 71 17 f2 bd 61 ed d1 3c
       0.05663878 -0.12077505 -0.11820877 0.025625886
000330 19 85 84 bd e4 54 7d 3c 1c d8 bc 3c 9e 4c 0a bc
       -0.06470699 0.015462134 0.023052268 -0.0084411185
000340 7c 41 f6 bd 17 3e b3 3c d1 2f 04 3e 93 a1 5f ba
       -0.12024209 0.021880193 0.12908866 -0.00085308513
000350 01 d2 42 3b 97 9c b3 bd 6f 75 54 be 6f a5 49 3d
       0.0029727223 -0.087701015 -0.20747922 0.049230035
000360 73 2b ca bd 44 b8 d0 3d f8 ca 00 bd f3 13 4e be
       -0.098715685 0.10191396 -0.031443566 -0.20124798
000370 59 6f 52 be 62 f1 d3 b9 92 60 97 bd 0e 7f 06 3e
       -0.20550288 -0.000404249 -0.07391466 0.13134405
000380 3d 9e 03 be ca 14 1f 3d 67 ad 11 be 9f 18 32 3e
       -0.12853332 0.038838185 -0.14226304 0.17392205
000390 89 7b dd 3c 63 08 40 bd 0e 72 f9 3c dd 44 d3 bd
       0.027036445 -0.046883 0.030449893 -0.10315869
0003a0 25 3e 4c be a5 d5 a9 3c 99 fa b8 bd 55 0e 23 3c
       -0.19945581 0.020731756 -0.09032173 0.0099521475
0003b0 3b a9 01 be e9 a3 25 3d 65 89 36 bc 62 46 03 3c
       -0.12662213 0.04043952 -0.011141156 0.008012386
0003c0 57 17 1a 3d 3e f4 46 bd 7c 65 06 be 96 97 08 3e
       0.037619915 -0.04857277 -0.1312465 0.13339075
0003d0 d3 27 ea bd 19 a0 a2 bd 18 89 81 bd 34 8d b0 3d
       -0.11433377 -0.079406925 -0.06324977 0.08620682
0003e0 67 7c 9b bd d2 cc a2 bd 6c 33 f0 3d 0a 6d 4f be
       -0.07592087 -0.079492226 0.11728558 -0.20256439
0003f0 55 36 50 bd 70 ef 0d 3e 49 a1 44 bb f6 49 71 bc
       -0.050833065 0.1386087 -0.003000336 -0.014727106

layers.0.nonlinear.0.bias f4 [32]
000000 47 0e 9f 3d dc eb 20 be 77 92 7c 3d 67 06 10 3e
       0.07766395 -0.15714973 0.061663117 0.14064942
000010 5a 69 22 3e 74 a4 c5 bd 1f 3a d6 bd 51 a4 69 3d
       0.15860501 -0.096505076 -0.104603045 0.05704147
000020 9e f9 44 bd d5 1b 09 3e 98 68 0d 3e 5e 56 e4 3b
       -0.048089616 0.13389523 0.1380943 0.0069683036
000030 c4 30 9f 3d 18 66 19 be 8d a6 9b bc 86 ee 26 be
       0.07772973 -0.14980352 -0.019000316 -0.16301927
000040 25 b7 02 3d e0 37 a9 bc 2a 6a e6 3d ea ae 23 bc
       0.03191294 -0.020656526 0.11250718 -0.009990433
000050 b9 32 2e be f7 64 b6 bd b2 de 6a bd 87 c4 19 be
       -0.17011537 -0.08905976 -0.057341285 -0.15016375
000060 7b 30 21 be a2 40 66 bd af 02 1f 3d 73 2d 21 be
       -0.1574115 -0.056213982 0.03882092 -0.15739994
000070 8b 10 33 3d d0 bc 9a bd 64 65 ba bd 60 b1 b6 bd
       0.04371695 -0.075555444 -0.0910137 -0.0892055

layers.0.nonlinear.2.weight f4 [32, 32]
000000 ba 0a f4 3d d2 49 f8 bd b9 1a 1b be a3 78 df bd
       0.119161084 -0.12123455 -0.15146913 -0.109116815
000010 bb 9b 80 bd b4 bc 4a bd c2 94 84 3d 16 8e e6 3d
       -0.06279703 -0.049496368 0.06473686 0.112575695
000020 53 69 ab bc 95 2e e3 3d 4e 98 30 3e 80 14 19 be
       -0.020924246 0.11092869 0.172456 -0.14949226
000030 7c 11 34 be a9 6a a6 3d 7f bf b3 3d 8c 6e d6 bd
       -0.17584795 0.081258126 0.08776759 -0.10470304
000040 34 dc ac bd 7a 71 80 3d 04 25 49 be f2 85 d3 3d
       -0.08440438 0.06271644 -0.19643027 0.103282824
000050 32 1a e1 bd de 03 c8 bd 22 93 8a 3b 8f 46 c3 bc
       -0.109913245 -0.097663626 0.0042289654 -0.023837356
000060 3e 87 c2 3d c2 6f c1 3d 77 9a d9 bc d0 5e c8 bd
       0.09498452 0.09445144 -0.026562912 -0.09783709
000070 f9 cf d5 bc 8f 07 c1 3d 69 e7 53 be 74 f0 c1 3d
       -0.026100146 0.0942527 -0.20693745 0.09469691
000080 2c 35 b3 bd be 1c 86 3c b0 3a a1 3c 30 33 5c bd
       -0.08750376 0.016371127 0.019681305 -0.053759754
000090 11 81 fe 3d 67 e5 11 3d 30 46 16 be 7f 32 4d be
       0.12426961 0.035619166 -0.14675212 -0.20038794
0000a0 a9 9e 3a be 73 79 79 be e5 5b 89 3a 52 c2 8f bc
       -0.18224587 -0.24362735 0.0010479657 -0.017548714
0000b0 82 77 ad 3d a3 78 a9 3b cd 43 6b 3d a5 81 b5 3d
       0.0847006 0.0051718517 0.057437707 0.08862618
0000c0 4b e6 82 bd 46 ad 15 3e 6d 23 0a 3e 46 7d 11 be
       -0.06391581 0.1461688 0.13490076 -0.14207944
0000d0 a3 ff 98 bd 52 06 1b be 48 20 b9 bd cb c0 c9 bd
       -0.07470634 -0.1513913 -0.0903936 -0.098512255
0000e0 a7 3f 6a 3d 0f 11 9f bd e0 77 80 bc 5f 51 25 be
       0.05718961 -0.077669255 -0.01568216 -0.16144322
0000f0 9a 51 be bd 5f 3b 64 bd e6 f5 5c 3e 77 b1 23 bd
       -0.09292908 -0.055720683 0.21578178 -0.039964166
000100 2b ea 3a 3d 79 29 a9 bd d7 9a 09 3e 1d db 90 bb
       0.045633476 -0.082598634 0.13437973 -0.0044206516
000110 96 b2 32 3d 14 28 46 bd 62 fe 8c 3d 82 e6 99 3d
       0.043627344 -0.048378065 0.06884457 0.07514669
000120 00 e4 ac bc b8 1a dd 3d 13 72 02 bd 95 48 f9 3d
       -0.021104813 0.10796112 -0.03184707 0.12172047
000130 4f d8 c9 3d 89 32 49 3d d5 da eb 3d 1b 12 4c be
       0.09855711 0.04912046 0.11516348 -0.19928782
000140 10 d1 15 3e 10 e1 f1 bc b2 e7 32 be fa 20 15 3b
       0.14630532 -0.029526263 -0.17471197 0.0022755251
000150 c7 9b 20 3d b0 1e 32 3e 0a ae 03 3e 78 be b7 3d
       0.03921106 0.17394519 0.1285936 0.08971876
000160 d7 67 e1 3d 35 30 2c be 2d 45 bd bd eb 4b 38 3e
       0.11006134 -0.16815265 -0.0924171 0.1799771
000170 86 4d de 3c 16 df a2 bd e5 9d 36 be 0a db 51 bd
       0.027136575 -0.079527065 -0.1783367 -0.051234283
000180 97 40 cf bd 2b 10 aa bc d7 82 c8 bd 94 ef 13 3e
       -0.101197414 -0.020759663 -0.09790581 0.1444686
000190 24 39 bb 3d d5 8e c4 3d 6e ca 23 3e 0e fe a0 3c
       0.09141758 0.095975555 0.1599519 0.019652393
0001a0 1b 67 31 be 8e b5 b2 3d 77 a0 ff bc 21 b8 22 be
       -0.17324488 0.08726035 -0.031204445 -0.15890552
0001b0 e7 28 69 3d fd 23 c0 bd 6b b8 dd bd d3 db 0c be
       0.056923773 -0.09381864 -0.108261906 -0.13755731
0001c0 11 a4 27 3e 6a 7b 1e 3d cf 61 aa bd 47 0c 05 bd
       0.1637118 0.038691916 -0.08319437 -0.03248241
0001d0 6a 5f 30 3d ed 4a 1a be 55 de 2c 3e e4 3b d5 3d
       0.043059744 -0.15067644 0.16881688 0.10411814
0001e0 51 86 8e bd 60 fb c9 bd e4 49 e0 3c a2 f1 b2 3c
       -0.069592126 -0.09862399 0.027378984 0.021843735
0001f0 f4 bf 23 3e a0 88 0f 3e 42 fc 3f bc 6a a3 be bc
       0.15991193 0.14016962 -0.011717858 -0.023271281
000200 a2 c8 7f 3c f6 de 25 be 3b a1 b7 bd 1b ba a1 bd
       0.015611799 -0.16198334 -0.08966299 -0.07896825
000210 fb dd bc 3c 36 81 05 3e 9a f6 2f bd 11 0d ba bd
       0.023055067 0.13037571 -0.042959787 -0.090845235
000220 41 41 db 3c cc c5 0b 3d 81 d8 38 3e 3c 19 ec 3c
       0.026764514 0.03412418 0.1805134 0.028820626
000230 a0 13 16 be 28 1b 33 be 87 89 71 3d de 84 94 bb
       -0.14655924 -0.17490828 0.058969047 -0.0045324406
000240 0c 3e 47 be 9f 47 1b be e0 49 2b 3e 66 7e 11 be
       -0.19457263 -0.1516404 0.167274 -0.14208373
000250 8c 43 22 be 72 dd 08 be c1 24 28 3e d5 60 3b 3c
       -0.1584608 -0.13365725 0.1642027 0.011436661
000260 ae 9f 9f bd fd 52 e6 3d e7 7a 1e be 60 e8 91 bd
       -0.07794128 0.112462975 -0.15476571 -0.071244
000270 1d f7 14 3e 0d bb cf bd 8b 30 07 be ad 91 f1 bc
       0.14547391 -0.10143099 -0.13202111 -0.029488409
000280 c5 df 87 bd e3 2a 35 bc 93 58 d6 bd b2 5c dc 3d
       -0.066344775 -0.011057588 -0.10466113 0.10759868
000290 e5 4d c1 3d ac 5c 91 3c 7a c1 28 be b0 b4 ab 3c
       0.09438685 0.017744385 -0.16480055 0.020960182
0002a0 67 ab 5a bc 94 94 e6 3d 3f 55 12 3e 03 ac 3a 3e
       -0.01334653 0.11258808 0.14290331 0.1822968
0002b0 9a 3f cb bd 62 4b 16 be 89 b7 ea bd 70 63 4c 3d
       -0.099242404 -0.14677194 -0.11460788 0.04989952
0002c0 15 b6 13 be 65 07 ed bd 22 c1 f5 bd 6f 36 99 3d
       -0.14424928 -0.11573676 -0.11999728 0.074810855
0002d0 ad 6b ff bd a2 72 5d bd be c1 55 3d 3a d6 67 bd
       -0.124717094 -0.0540644 0.05218672 -0.056600787
0002e0 ca 47 e4 3c 68 97 99 3b e1 36 3e 3b 06 55 cd 3d
       0.027866263 0.0046872385 0.002902441 0.100259826
0002f0 47 ec 38 3e 28 72 11 be db 5a 78 3d 49 54 21 bd
       0.18058883 -0.14203703 0.06063352 -0.03938702
000300 5c 73 76 bd 83 ac 10 3e 34 7c 61 bd 5f a0 13 bd
       -0.06016861 0.14128308 -0.05505009 -0.036041614
000310 4e 5e fc 3d 06 28 e5 3b de 16 11 3e 92 38 01 3e
       0.12322675 0.0069932966 0.1416888 0.12619236
000320 51 75 70 3c ed fd 24 3e 5d 68 4d bd 02 cc ce bc
       0.014676408 0.1611249 -0.050148357 -0.025243763
000330 e8 08 2c 3e cb a0 f5 bd 59 b3 10 3d 7d a6 88 3d
       0.16800272 -0.119935594 0.03532729 0.0667238
000340 c5 4b cd 3d 88 1f b8 bb f5 c9 a6 3c c1 c0 32 bb
       0.100242175 -0.005618993 0.020359972 -0.0027275535
000350 b4 6e 13 bd d2 3b 16 3e 42 44 9d bd 0b 87 62 3d
       -0.035994247 0.14671257 -0.07679035 0.05530457
000360 6b 52 de bd a4 18 11 3e 5b 00 a4 3d cb a2 5e 3d
       -0.10855564 0.14169556 0.0800788 0.05435447
000370 4b 1c 3b 3d aa 47 11 3e 3c fc 83 3b 1a 0b c1 3d
       0.04568128 0.14187494 0.0040278714 0.094259456
000380 ad ca 11 be 56 15 15 3d 18 1f 3c bc 02 a8 08 be
       -0.14237471 0.0363973 -0.011482023 -0.1334534
000390 0a 7d ee bd e8 3e 9c 3d bb 98 ae 3c 1c 0a 33 3d
       -0.11644943 0.07629186 0.021313062 0.043710813
0003a0 37 03 13 be cb 2f 3f be 18 10 fb 3d 46 3f ba bd
       -0.14356695 -0.18670575 0.12258929 -0.090941
0003b0 c4 af c8 bd eb 8a 22 be c7 c8 23 be fe 05 c6 bc
       -0.0979915 -0.15873305 -0.15994559 -0.02417278
0003c0 0f a6 c5 bd 9a ca 0e 3d 1e 7a 32 3e df 8d a4 bc
       -0.09650814 0.034861185 0.17429397 -0.02008718
0003d0 45 ca 00 3e be 01 42 bd 64 eb df 3d 00 e3 75 3b
       0.1257716 -0.047364943 0.10933569 0.0037519336
0003e0 a8 02 b4 bd 08 07 da 3d 4d c1 11 3e c6 de 49 bd
       -0.08789569 0.10645872 0.14233895 -0.04928472
0003f0 3a 47 2f 3e e7 39 15 bd 64 c6 b4 bc 55 95 22 3e
       0.17117015 -0.036432173 -0.022067256 0.15877278

layers.0.nonlinear.2.bias f4 [32]
000000 2e 1a 0d 3e 67 61 2c be d7 b3 69 3d d1 b3 70 3d
       0.13779518 -0.16834031 0.057056274 0.058765236
000010 59 0b 08 3d 38 63 c3 3d c8 c8 47 3e 89 4a ed bd
       0.033213947 0.09540409 0.19510186 -0.11586482
000020 ef 07 e6 bc 2d ee 38 be 30 2f 01 be 5d 17 3d 3e
       -0.028079955 -0.18059607 -0.12615657 0.18465944
000030 db be 1b 3d 21 e7 3a 3c e9 7b 0d 3b ef b8 21 3d
       0.03802381 0.0114076445 0.0021588749 0.039483007
000040 d6 48 1d 3e d5 8f 6d bd 32 e5 97 3d 68 7f 87 3d
       0.15359816 -0.057998497 0.074167624 0.06616098
000050 21 42 d8 bc 81 81 f0 3d 4b 00 27 3e 17 4f dd 3c
       -0.02639872 0.11743451 0.16308706 0.027015252
000060 1d 61 a5 bd ff d5 12 be d6 67 49 3e 41 ff 31 be
       -0.080751635 -0.14339446 0.19668517 -0.17382528
000070 84 62 fb bd 94 b2 f8 3d e3 58 2f 3e e7 f3 85 bd
       -0.1227465 0.12143436 0.17123751 -0.06540661

layers.1.linear.weight f4 [64, 32]
000000 0b d1 ad bd a8 7d 3d bd 83 51 68 3d c1 e4 05 be
       -0.084871374 -0.046262413 0.05671836 -0.13075544
000010 44 3c f5 3d c2 7d 35 be 00 7e fa bd 86 62 03 3e
       0.119743854 -0.17723754 -0.12231064 0.12830552
000020 49 1a 86 3d 2e ef 40 bd 65 37 dd 3d 8e b3 0b 3e
       0.06547982 -0.0471031 0.10801581 0.13642713
000030 44 71 98 3d e7 e6 ef 3d 4c 75 4d bd 39 6b 90 bb
       0.07443479 0.11713963 -0.05016069 -0.004407313
000040 ff b6 2b 3d 1e 82 c2 3d 2d d1 e1 bc 4b e8 2c bd
       0.041922566 0.09497474 -0.027565563 -0.04221372
000050 d9 ad 65 3d 3d 55 8c bc 33 1f 35 3c fe 8e 8c bd
       0.056073997 -0.017130489 0.011054802 -0.06863211
000060 69 5e 12 3d ab 51 ed bd 57 33 01 be 65 8c 35 ba
       0.035734568 -0.115878426 -0.12617241 -0.00069255225
000070 e5 a8 14 3e 55 31 21 3d a7 fc dd 3d 6e c8 9a 3d
       0.14517553 0.039353687 0.10839205 0.0755776
000080 dd 4c 33 be f2 28 d7 3d 3e 03 08 3d ed 30 b5 3b
       -0.1750979 0.105058566 0.033206217 0.005529514
000090 1c f8 19 3e 41 32 33 be 1a 0d 26 3e 4c da c2 3d
       0.15036052 -0.17499639 0.16215935 0.09514293
0000a0 9f 96 18 3e 36 9b 83 bd de 0d 78 bc 67 f4 6c bd
       0.14901207 -0.064260885 -0.015140025 -0.057850268
0000b0 0f 97 06 3e b0 97 9b 3d 87 62 4f 3d 1d dc 38 3e
       0.13143562 0.075972915 0.050631072 0.18052717
0000c0 63 7f 3e be 7f e0 8d bd 71 6c a5 bc e6 6b a9 bd
       -0.18603282 -0.06927585 -0.02019331 -0.08272533
0000d0 03 f5 30 be 30 18 e4 3d a7 eb 16 3e 43 c0 09 3e
       -0.17280965 0.11137426 0.14738332 0.13452248
0000e0 83 a8 2d bd 7a 58 90 bc c0 5c 15 3d e1 01 43 3e
       -0.042397033 -0.017620314 0.036465406 0.19043685
0000f0 dc e7 b4 3d c4 2d 9d 3c 9e c8 44 bd e1 3d dd 3d
       0.08833286 0.019186862 -0.048042886 0.10802818
000100 b0 ac 21 3e 81 f8 1e bd b0 68 70 3d b0 f9 1e 3e
       0.15788531 -0.03881121 0.058693588 0.15524936
000110 a8 f2 0b be 81 39 81 bb cc a6 e9 bc bb c5 35 be
       -0.13666785 -0.0039436226 -0.028521918 -0.1775121
000120 3d a3 e4 3d da 0d f9 bd 90 da 84 bd 22 0d 1b bd
       0.11163948 -0.12160845 -0.06487 -0.03785432
000130 75 65 32 be 23 e1 3c 3d 6d 11 27 be c0 3b 1a be
       -0.17421515 0.046113145 -0.16315241 -0.15061855
000140 85 09 05 bd 64 69 0e 3e 70 c9 e2 bd 2d d1 a7 bd
       -0.03247978 0.13907391 -0.110735774 -0.08194194
000150 c6 f4 c8 bc 72 80 06 be 16 5e bf bc b3 77 c9 3d
       -0.02453078 -0.13134935 -0.023360293 0.09837284
000160 71 5a 19 3d 3e a5 9a 3c 9a d4 98 bc 57 fb e8 bd
       0.037439767 0.018877622 -0.018656064 -0.11376064
000170 26 b0 2a 3d 43 6a eb bd d0 02 ae 3d 6a a1 85 3d
       0.041671894 -0.11494877 0.0849663 0.06524928
000180 4b ea 79 3d da f7 8c 3c 6d 73 21 be f0 71 1c be
       0.061014455 0.017208029 -0.15766688 -0.15277839
000190 fa 16 1e 3e 16 03 0e be 2c 8e b1 bc 5d da d6 bd
       0.15438452 -0.13868365 -0.021674238 -0.10490868
0001a0 03 ca af bd b6 cf 36 bc ca dd 1b 3e 61 7c 3e be
       -0.085834526 -0.011157921 0.15221325 -0.18602134
0001b0 0e 7d cf 3d 50 c4 58 3d fb e2 17 be 1c af 64 3b
       0.10131274 0.052921593 -0.1483268 0.0034894412
0001c0 5e b5 1e 3d 6a ac 34 3d 67 13 a2 bd 2d 11 ae 3d
       0.038747184 0.04410974 -0.07913857 0.0849937
0001d0 78 2c db 3c 78 36 37 bd 0e 25 bf 3d b9 0a a7 bd
       0.026754603 -0.04472968 0.093332395 -0.08156342
0001e0 55 9e 3c 3e b9 23 f8 3d d2 ce 1c bd d8 7d 22 be
       0.18419774 0.121161886 -0.038283177 -0.15868318
0001f0 b4 7a 65 3d 96 f8 ef 3d 20 31 87 3d b1 01 3b be
       0.056025222 0.11717336 0.06601167 -0.18262364
000200 84 dd cc bc c8 dd 8d 3d 95 fd 50 3d da 7e 40 3e
       -0.02500797 0.06927067 0.051023085 0.1879839
000210 0a 34 a6 3b 19 38 2f 3e 0d f7 ad bd 2b 45 9a 3d
       0.0050721215 0.17111243 -0.08494387 0.07532724
000220 94 55 e4 bb 22 27 18 3d 42 de d0 bd fd 8b e1 3c
       -0.0069682095 0.037146695 -0.10198642 0.027532572
000230 c5 7d d2 3d 6e 39 ca 3c 70 63 26 3e a4 e8 25 be
       0.10277895 0.024685588 0.1624887 -0.16202027
000240 06 78 d5 bd c1 c3 01 be 2d b9 65 3d 90 aa 74 bd
       -0.10423283 -0.1267233 0.0560848 -0.059732974
000250 bb d7 ed bd 97 ed fe 3c e3 42 83 3d 8a e3 21 3e
       -0.11613413 0.031119151 0.06409242 0.15809456
000260 f8 f7 5f bd 05 3f 8f 3d 2f 52 d0 bd 3b 1b 3f 3d
       -0.05467984 0.06994442 -0.10171925 0.04665683
000270 73 37 32 3e 1b 43 d7 bd 25 2c f5 3d af 0a 98 bd
       0.17403965 -0.10510846 0.119713105 -0.07423913
000280 43 f8 ca bd e5 f9 96 3d d3 c5 c0 bd 85 79 79 3c
       -0.099106334 0.07371882 -0.09412732 0.015226726
000290 3b fd 7a 3c df dc a3 bd 87 4a cf 3d 0d c9 99 bd
       0.015319164 -0.08001112 0.10121637 -0.075090505
0002a0 04 78 86 bd fd 88 eb bd c7 18 75 bb bb b9 f5 bd
       -0.0656586 -0.11500738 -0.0037398802 -0.11998316
0002b0 63 b0 cc bd c0 10 11 be 09 93 0b be d3 30 28 3e
       -0.099945806 -0.14166546 -0.13630308 0.16424875
0002c0 b4 d3 a1 bd a0 0c 22 3e 10 62 8a bd 3e 1e ae bd
       -0.07901707 0.15825129 -0.06756985 -0.08501862
0002d0 75 b9 09 be 92 f9 5a bd db f9 00 bd 7c 9f ec 3d
       -0.13449652 -0.053460665 -0.03148828 0.11553857
0002e0 05 99 1f bd 8f 80 c5 3d 10 e0 23 bc 85 5b 90 3d
       -0.03896429 0.09643661 -0.010002151 0.07048706
0002f0 21 8e fc 3d e7 57 1d be c1 45 24 3e ea ce 4b bd
       0.123317964 -0.15365563 0.16042234 -0.049757876
000300 de 3a b3 3d f8 ff 01 3d 79 05 7f bd 37 81 02 be
       0.087514624 0.03173825 -0.06226108 -0.12744604
000310 31 7d 0b be 51 bb 1e 3e 8a 6d 00 be da 2a 3d bd
       -0.13621975 0.15501143 -0.12541786 -0.046183445
000320 7a 9b 42 3e 5f 33 b0 bd 2b df 9a 3c f5 fd 8b bc
       0.19004622 -0.08603548 0.018905243 -0.01708887
000330 ee 8c ab bd 44 7e 9d bd f1 5f bc 3d b4 26 d0 3d
       -0.083764896 -0.07690099 0.09197987 0.10163632
000340 f0 1f d8 3d a3 40 6c ba f1 ef bb bd f6 61 09 3e
       0.105529666 -0.0009012317 -0.091766246 0.13416275
000350 c0 cb 09 be cb 1c d8 3d cf 3e 04 3e 11 2a 76 bd
       -0.1345663 0.10552367 0.12914585 -0.06009871
000360 92 c3 83 bc 2e 3e a3 bd 72 6a 24 3e c0 83 fa bd
       -0.016084466 -0.07970844 0.1605623 -0.122321606
000370 26 93 e0 3d d8 53 42 3d af 4c 81 bd cd 48 9b bb
       0.10965566 0.04744324 -0.06313454 -0.004738903
000380 4c 84 63 3d 06 1b d4 bc 2a 6f 89 3d 9f d9 22 be
       0.05554609 -0.025891792 0.06710656 -0.15903328
000390 0a 2e b8 3d fb 20 f5 bd 23 b0 f1 3d ad c6 09 be
       0.08993156 -0.11969181 0.118011735 -0.13454695
0003a0 f2 fe 0d be 18 4e a8 3d c2 ca ed 3d df b5 ad bd
       -0.13866785 0.0821802 0.116109386 -0.08481955
0003b0 e8 2f 76 bd 44 9e 3c be d2 80 12 3e f0 7f b9 bc
       -0.06010428 -0.18419749 0.14306954 -0.022644013
0003c0 a0 e2 78 bd b9 81 70 bd e8 49 91 bd a4 78 04 bc
       -0.060763 -0.058717463 -0.070941746 -0.008085404
0003d0 57 99 a4 bd aa a0 e5 bd 8c d4 ae bd 55 45 3e bd
       -0.0803706 -0.11212285 -0.08536634 -0.04645284
0003e0 39 45 28 bb 24 78 86 3c 91 30 0c bd 22 6d 9d 3c
       -0.0025676026 0.01641471 -0.034226004 0.019217078
0003f0 21 2c 2c 3e c2 3e 96 bc 29 11 be bd 8f 62 27 be
       0.16813709 -0.018340472 -0.09280617 -0.16346191

layers.1.linear.bias f4 [64]
000000 02 e5 f5 bd 59 10 67 bd 35 7b eb 3d b9 ad 13 bd
       -0.120065704 -0.056412075 0.11498109 -0.036054347
000010 dd 19 7e bc dd b4 e2 3d e1 3c 68 bd 97 42 da 3d
       -0.015509096 0.11069653 -0.056698684 0.10657232
000020 bf 0c aa ba 41 c9 03 3e 49 1a ef 3d 57 ae 9a bc
       -0.0012973769 0.12869741 0.11674935 -0.01888196
000030 8b 4c 08 3e b9 13 b2 bd bd d6 96 bd d8 b4 84 bd
       0.13310449 -0.08695168 -0.07365177 -0.06479806
000040 8f 9a b7 bc 4d d3 e8 3c 3c 2b 2d be aa 56 80 3d
       -0.022412566 0.028421069 -0.16911024 0.0626653
000050 fa e0 74 bc 9a bb 27 bb 01 aa 3c 3e 6c 7e 86 3d
       -0.014946217 -0.0025593997 0.18424226 0.06567082
000060 fa 57 43 3e a2 a0 fa bd 3c ab 0f 3d d5 fd 1b be
       0.19076529 -0.122376695 0.03507541 -0.15233548
000070 86 d4 da bc 32 6b 4e 3d c4 44 eb 3d e9 e2 3e 3e
       -0.026712667 0.0503952 0.114877254 0.18641247
000080 b1 e0 0d be c2 69 0e 3d e2 d6 4c be e7 ff f2 bd
       -0.13855244 0.034768827 -0.20003846 -0.11865216
000090 35 06 d2 3d f3 a7 f0 3d c7 48 28 be f8 ba 35 bc
       0.1025509 0.11750784 -0.16434012 -0.01109194
0000a0 30 64 5a 3d c1 5f dc bd 88 02 c5 bd d5 85 cd bd
       0.053318202 -0.10760451 -0.096196234 -0.10035292
0000b0 5d d4 27 3e e4 f1 2a 3d cf 4f 03 bd 12 d5 c1 bd
       0.16389604 0.04173459 -0.032058533 -0.09464468
0000c0 6d 7e d0 bd b1 a3 32 3e 8e 87 a3 bc 83 f4 38 3e
       -0.10180364 0.17445256 -0.019962098 0.18062024
0000d0 ff ab 23 be d5 59 35 be 5c c9 1e be 52 e1 48 3e
       -0.1598358 -0.1771005 -0.155065 0.19617203
0000e0 93 f2 dc bd 1b af 30 be d3 e5 e2 bd cb 8b 4b 3e
       -0.10788455 -0.17254297 -0.11078992 0.19877546
0000f0 47 42 22 bd 66 07 06 3c 5c 27 14 3e b0 02 bb 3d
       -0.03961399 0.008180475 0.1446814 0.09131372

layers.1.nonlinear.0.weight f4 [64, 64]
000000 e3 63 f2 3d d8 8b df 3d 3f 2f 1b 3c 05 e0 21 3d
       0.11835458 0.10915345 0.009471714 0.039520282
000010 4c 3d 47 3d ce 7d 28 3d 84 c3 b9 3d 09 99 de bc
       0.04864244 0.0411356 0.09070495 -0.027172582
000020 3d d0 b4 3c 77 31 e1 bd 94 3e c5 3c 62 91 6f 3d
       0.022071952 -0.10995763 0.024077691 0.058488257
000030 42 ef 62 bd 11 70 c1 3c 49 a5 98 3d 83 79 17 3d
       -0.055403955 0.023613008 0.07453401 0.036981117
000040 f1 55 b1 3c 36 23 15 bd 43 bc 9c bd 62 38 66 3d
       0.021647425 -0.036410533 -0.076530956 0.056206115
000050 3d 0b 59 bd 73 2e 0b 3e 6b d3 b0 bb 5e f7 16 3e
       -0.052989233 0.13591938 -0.0053962967 0.147428
000060 f7 41 6c 3c f8 d1 a6 3d ac 81 a7 bd 71 9e ac 3d
       0.014420024 0.08145517 -0.0817903 0.08428658
000070 2d 52 a5 bd a7 6d e8 3b 05 f2 29 bd 1d 7b d5 3d
       -0.080723144 0.0070931497 -0.041490573 0.104238726
000080 8d 41 da 3c 14 35 fe bd b2 1c 82 3d ae 09 c6 bd
       0.026642585 -0.124124676 0.063531294 -0.09669815
000090 87 22 8a 3d 2a 03 79 bd 6c e5 e9 bb 46 9d 43 bd
       0.06744867 -0.060794033 -0.007137945 -0.04775741
0000a0 58 af 4c bd e8 f5 ce bd 96 ca c4 3d 13 29 10 bc
       -0.04997191 -0.10105497 0.09608953 -0.008798855
0000b0 d0 3d 87 ba 4d 12 d4 bb 6e d9 bc 3c b5 11 57 3d
       -0.0010318104 -0.006471908 0.023052897 0.05250712
0000c0 27 a5 84 3d 42 f5 ca 3d d9 af cb 3c ac b9 2d bc
       0.06476813 0.099100605 0.024864124 -0.01060335
0000d0 c9 67 fe 3c 2a 9c 30 bd 00 10 90 bd 77 2b 03 3d
       0.031055348 -0.04311768 -0.07034302 0.032023873
0000e0 9c 8c dc 3b 20 4c 4f bd 9f 2e 59 3c 41 68 6f 3c
       0.006730629 -0.050609708 0.013255744 0.014612258
0000f0 4a 48 fe 3b 09 0f 20 3d 07 67 1e 3d 36 3f f8 bd
       0.0077600824 0.03907684 0.038672473 -0.121214315
000100 08 cf 24 3d a7 d4 92 3d c7 7c dc 3d c3 ce aa bd
       0.040236503 0.071694665 0.10765987 -0.08340218
000110 81 55 c8 3d da 94 6c bd 0b d7 26 3a b8 1b 96 3d
       0.097819336 -0.057759143 0.00063644414 0.07329506
000120 c5 a7 c0 3d 7f 3a b1 3c 66 6a 3a 3d d8 d3 af 3d
       0.094069995 0.021634338 0.045511626 0.08585328
000130 07 a8 ce 3d 72 61 cd bc cc 4e fb bd bd 8b bd bc
       0.100906424 -0.02507088 -0.12270889 -0.023137921
000140 fa a6 24 bd 4f ab 19 bd 03 60 e5 bd 95 50 01 3d
       -0.040198304 -0.03751689 -0.111999534 0.03157099
000150 2e 39 81 bd 74 09 ca bc b6 f1 ed 3c d3 be 8c bd
       -0.06309734 -0.02466271 0.02904592 -0.06872334
000160 cb 43 3d 3d 50 35 05 3d 6a 28 a0 bd 35 7f c9 bd
       0.04620723 0.032521546 -0.07820208 -0.09838716
000170 69 ac cf bd 73 5c d1 3d d3 55 fa bb 08 63 93 3b
       -0.101403065 0.102227114 -0.0076396256 0.0044978894
000180 ac 04 53 3d 76 63 74 3d 6c 87 82 bd 13 1a b0 bd
       0.051518127 0.059665166 -0.06373486 -0.08598723
000190 e2 b6 bf 3c a1 a8 89 bc 33 da 85 3c 0b e5 40 bc
       0.023402635 -0.016804041 0.016339397 -0.011773358
0001a0 32 5f 37 3b 43 b1 03 be fd 67 0e be ea ae 76 3d
       0.0027980325 -0.12860589 -0.13906856 0.060225405
0001b0 23 56 e4 3a 93 cd 96 3d ae 69 13 bd 8a 04 d5 3d
       0.001742069 0.07363429 -0.035989456 0.104012564
0001c0 18 4d 08 3e 04 20 01 3d bd d6 04 be 50 75 74 3d
       0.13310659 0.031524673 -0.12972541 0.05968219
0001d0 9b d1 81 bd 25 db a7 3c 18 b5 d8 3c a6 57 dd bd
       -0.06338807 0.020490238 0.02645354 -0.10807733
0001e0 0d e7 b5 bd c4 14 47 3c 3b 43 24 bd da 98 91 3d
       -0.0888196 0.012150947 -0.04010318 0.07109232
0001f0 b9 d6 60 bd 24 cc 96 3c a0 4c ad ba 81 5f c8 3d
       -0.054892275 0.018407889 -0.0013221689 0.09783841
000200 13 9e cb bc 50 0a ad 3d f4 43 b4 bd 8c 43 bf bd
       -0.02485565 0.084492326 -0.088020235 -0.093390554
000210 57 75 8e bd 20 24 51 3d db dc 97 3d 64 a7 af bc
       -0.069559745 0.051059842 0.07415172 -0.021442123
000220 ce 61 79 bd 92 d7 84 bd b5 be 18 bd 0b 97 95 bd
       -0.06088429 -0.06486429 -0.037291247 -0.073042
000230 9d 85 c8 bd 11 ef 56 bd b6 a7 e5 bd 85 18 d2 bd
       -0.0979111 -0.052474085 -0.11213629 -0.10258583
000240 e3 29 da 3d 79 2b fc 3b a1 d1 bb bd 83 21 e6 bd
       0.106525205 0.007695612 -0.09170843 -0.112368606
000250 f9 f0 39 3d d7 1a a0 3d fe 23 ad 3d 93 53 d6 3d
       0.045395825 0.07817619 0.084541306 0.10465159
000260 f8 05 d8 bd 0b fc cd 3d f8 aa e8 bd 0d 50 9e 3d
       -0.105480134 0.10057839 -0.11360735 0.07730112
000270 ac 56 21 3e 0e b3 9a bd d7 5b 8b 3d 6d 0f 21 bd
       0.15755719 -0.07553683 0.068046264 -0.03932135
000280 d4 ae 8d bd c2 b6 fe 3c 0a 90 e2 3c c7 58 9e bc
       -0.069181114 0.031093005 0.027656574 -0.019329442
000290 fa 86 6f bd e5 2f 4c 3c 70 1a d7 3d 95 f1 ba bc
       -0.058478333 0.012462591 0.105030894 -0.022820273
0002a0 c0 fd 1e 3e df cd 29 bd ee bd 1e 3e 81 b9 27 bd
       0.15526485 -0.0414561 0.1550214 -0.040948395
0002b0 5a bc a9 bd c1 ed b9 bd 85 99 8c 3d 5e f7 14 3e
       -0.08287878 -0.09078551 0.06865219 0.14547488
0002c0 b1 c4 77 bd 12 fc c0 bd 38 72 3e 3c 25 a0 a5 bc
       -0.060490314 -0.094230786 0.011623912 -0.020217964
0002d0 4f 24 19 3e ee 01 e4 bc 09 ac fd 3d 0c d6 aa bd
       0.14955257 -0.027832951 0.12386329 -0.083416075
0002e0 42 57 c7 bd 5b a3 24 3d 2e 9d 90 bc e9 06 7f bb
       -0.0973344 0.04019485 -0.017653074 -0.003891403
0002f0 e3 76 6d 3c 7b 57 4b bd 77 ce 90 3d 30 4e 9d ba
       0.014493677 -0.049643975 0.0707063 -0.0012001451
000300 e6 81 d7 3d 72 91 9a 3d b9 9d 94 bd 42 fc c5 3d
       0.10522823 0.07547273 -0.07256646 0.09667255
000310 00 7b a0 bd 67 35 77 3d 88 42 f9 bd ad 62 1a 3d
       -0.078359604 0.060353663 -0.12170893 0.03769176
000320 81 2c a8 3d 1c 1c 8f 3d 10 a2 bc bd 46 3a f8 bd
       0.082116134 0.06987783 -0.092105985 -0.1212049
000330 0c f3 87 bd d8 58 9a 3d f2 c4 3e bc 70 85 cf 3d
       -0.066381544 0.07536477 -0.011643635 0.10132873
000340 f9 b7 ee bd 2f 1b 21 bd 3b 62 f5 bd a2 f2 4e bd
       -0.11656184 -0.039332565 -0.119816266 -0.05052436
000350 fa 7b 04 be c4 8b 72 3d 42 5a 6c bd e3 8d 55 3d
       -0.12937918 0.059215322 -0.057703264 0.052137267
000360 38 ff e9 3d ae 58 96 bd a3 89 03 3d 3a 49 14 be
       0.11425632 -0.07341133 0.032113682 -0.14481059
000370 4b e4 bd bc 4b 02 54 3d f9 51 a3 bc c8 b7 a9 3d
       -0.023180148 0.05176 -0.019936549 0.082870066
000380 cb 24 92 bb 43 ab b5 3d 4c 95 e7 3d 19 8f a9 3d
       -0.0044599525 0.08870556 0.11307773 0.08279247
000390 91 83 ac bd c2 16 c3 3c 11 59 8d 3d fd a1 d0 3c
       -0.08423532 0.023814563 0.06901754 0.025467867
0003a0 3d dd 9a 3d 90 bc b3 3c ce 69 eb bc 83 ee ce 3d
       0.07561729 0.0219405 -0.028736975 0.10104086
0003b0 3b 3f 2f 3c e1 8f 72 3d cb fc c0 bd 18 41 d3 3d
       0.010696228 0.059219245 -0.094232164 0.1031515
0003c0 91 be 5e bd 87 d2 d4 bc ce ec 4d 3d 4a 13 c7 bc
       -0.054380957 -0.025979294 0.050274663 -0.02430119
0003d0 dc 3e 76 bd 83 61 28 3d e5 32 9d 3d ae 0c 81 bc
       -0.06011854 0.04110862 0.07675723 -0.015753116
0003e0 b1 ab 94 bb 91 e5 14 3d 98 7b 17 be 51 f4 ef 3d
       -0.004537069 0.036351744 -0.14793241 0.117165215
0003f0 7b 70 14 bb be 72 89 bd 91 08 87 3d 66 a9 bf 3d
       -0.0022650051 -0.067113385 0.06593431 0.09358482

layers.1.nonlinear.0.bias f4 [64]
000000 f8 49 01 bd bf 2d 76 3d 7a 32 4a 3d 78 15 8b 3d
       -0.031564683 0.06010222 0.049364544 0.06791204
000010 7f 45 fe bd c2 1c f6 bd 1f b2 18 be c6 6b c2 bd
       -0.12415599 -0.12017204 -0.14911698 -0.094932124
000020 22 96 70 bd 99 0b bf bd f9 ee d5 bd 59 ee a0 bd
       -0.058736928 -0.09328384 -0.10445971 -0.07857961
000030 c1 74 ca 3d 00 94 ae bc ad aa 14 3e 11 fa 8f bd
       0.0988555 -0.021310806 0.14518233 -0.07030118
000040 f3 b0 13 3d 48 c0 0a be aa ef 92 3d e6 08 87 3c
       0.036057424 -0.13549912 0.071746185 0.016483735
000050 86 cc 20 3c 53 70 63 bc ed b0 24 3d 1f 43 ec 3c
       0.009814387 -0.013881761 0.040207792 0.0288406
000060 91 84 6e bd 5e 72 e5 3b 12 ac 04 be 34 5f 04 be
       -0.058231894 0.007002159 -0.12956265 -0.12926942
000070 bc bf 47 bc b2 c9 d3 3d f8 dd 4a bc 00 ba 05 be
       -0.012191709 0.10341205 -0.012382023 -0.13059235
000080 ff aa 94 3c c0 f4 ee 3d 63 15 8e bd d3 55 c0 bd
       0.018147944 0.11667776 -0.06937673 -0.0939137
000090 8a 28 ab bd e0 b0 f1 3d ef 24 bc 3d f0 08 2b bd
       -0.083573416 0.11801314 0.09186732 -0.04175657
0000a0 b9 c7 e5 3d df 04 01 3d 20 0c 06 be 43 54 f9 bd
       0.11219735 0.031498786 -0.13090563 -0.12174275
0000b0 15 15 9a bd 8e 04 10 bc 12 30 8c 3c 75 7d 9d bd
       -0.07523552 -0.008790148 0.017112765 -0.07689945
0000c0 ed a0 90 3d 64 c2 8d bc e6 fe 9b 3d bc 2a a8 bd
       0.07061944 -0.017304607 0.076169774 -0.08211276
0000d0 bb 8a ae 3b 23 78 d7 3c 10 d6 be 3a b2 f8 61 bd
       0.0053265966 0.026302403 0.0014559645 -0.055168815
0000e0 7e 6f 25 bd 99 08 fc bd b3 03 5d 3d 0b c4 fe bb
       -0.04038953 -0.123063274 0.053958606 -0.007774835
0000f0 8d c7 8b bd 1c 43 b3 bd 2e 38 ae 3d a0 4e ae bd
       -0.06825171 -0.087530345 0.08506809 -0.0851109

layers.1.nonlinear.2.weight f4 [64, 64]
000000 aa bb e5 3d 28 51 f0 3c b0 01 92 3d 7a 7e 99 3d
       0.11217435 0.029335573 0.07129228 0.074948266
000010 8c 9a 7b bb d3 6a fc 3d 77 27 d6 3d 3b e4 f6 bc
       -0.0038391678 0.123250626 0.10456746 -0.030138126
000020 b9 dd ca 3d 65 a0 19 bd 89 a4 ce bc b1 39 13 bd
       0.099055715 -0.03750648 -0.02522494 -0.03594369
000030 63 fc 0e bd 1d b8 b1 3d 7e aa 79 3d 53 20 f3 bd
       -0.034908663 0.08677695 0.06095361 -0.118714
000040 c8 f0 d3 bd c0 fc d5 3d c3 9d bf bc f1 ed 79 3d
       -0.1034866 0.10448599 -0.023390656 0.061017934
000050 2c 0b a7 bc 33 7b 2d bc da 7a 73 3c fc 72 c0 bc
       -0.02039107 -0.010588455 0.014860833 -0.023492329
000060 96 9e 91 3d 60 ed 73 3c ef 7e ff bc 57 87 6e 3d
       0.07110326 0.014888138 -0.031188456 0.05823454
000070 e9 ba c3 3d 18 c5 1b bd 2b 6e a8 3c ef 96 fe bd
       0.09557135 -0.03802976 0.020560345 -0.12431132
000080 d1 07 d3 3d bd 4f 40 bd 1f 10 7f 3d 7a d5 99 bd
       0.10304225 -0.046951044 0.062271234 -0.075114205
000090 e0 fd d7 bd 47 f9 3b bc f6 56 70 bd bd c4 77 bc
       -0.1054647 -0.011473007 -0.058676682 -0.01512259
0000a0 04 e3 b8 3c 06 af b1 3d 6a 33 b7 bd 74 52 11 bd
       0.022569187 0.08675961 -0.08945353 -0.035479024
0000b0 6f 5b 1a bd 93 e7 2b bc 6a 7a b6 bb 9a c4 be 3d
       -0.037684854 -0.010492223 -0.005568792 0.093148425
0000c0 25 e3 91 3d 1b f3 69 bd c9 d1 97 bd aa 2f 42 bd
       0.071234025 -0.05711661 -0.0741306 -0.047408737
0000d0 d4 50 de bc 4f 94 ce bd f6 b1 ff 3d f2 dd 22 3d
       -0.027138151 -0.10086881 0.12485115 0.039762445
0000e0 f1 ba ae 3d 35 dd 1c 3c 65 52 01 3d 2b 0d 84 bd
       0.0853175 0.009574224 0.03157272 -0.06447824
0000f0 bf cf a8 bd 64 27 b6 bc eb 68 f1 bd 7e 93 cb 3d
       -0.082427494 -0.02223558 -0.1178759 0.09940241
000100 33 87 90 3d ee 05 15 bd 1a b2 0a 3d fb 1e ad bd
       0.07057037 -0.036382608 0.033861257 -0.08453175
000110 f5 01 a0 3d 80 8b 2c bd c8 9d f0 3d 4d 9d 97 3b
       0.07812873 -0.042125225 0.117488444 0.004626906
000120 35 dd cd bc 5c 0d 55 bd f5 7a de 3d 20 e4 0b 3e
       -0.025129894 -0.052014694 0.10863296 0.13661242
000130 79 7d c1 3d d1 31 f9 bb 28 cb b4 bd e6 67 01 3e
       0.0944776 -0.0076048155 -0.088278115 0.1263729
000140 e6 d0 63 bd 44 01 34 3d 7c 96 00 be 97 67 ac bd
       -0.055619143 0.04394652 -0.12557405 -0.08418196
000150 0c 01 78 bd eb e1 25 bd 17 26 0c be 5d 31 7d bd
       -0.060547873 -0.040498655 -0.13686405 -0.061814655
000160 33 ea 03 3e 39 6b 4d 3d 26 bf 78 bd f7 63 ed 3d
       0.12882309 0.050151084 -0.06072917 0.115913324
000170 0a 16 06 3e 8e b9 cc bd 06 98 d2 bb ba c4 10 3e
       0.13094345 -0.09996329 -0.006426814 0.14137545
000180 c0 2c 13 bc fd 5c 6e bd aa 80 56 bd ea 35 2e bd
       -0.008982837 -0.05819415 -0.052368797 -0.042531885
000190 12 10 b8 bc 03 d2 c4 bd b4 73 8b 3c 0b c1 1a 3d
       -0.0224686 -0.09610369 0.017022945 0.037781756
0001a0 5e 5d 25 3d ea 66 7e 3c 4c be b4 bd 35 4b 00 3e
       0.040372245 0.015527466 -0.08825359 0.12528689
0001b0 2e 4a ac bb 4d 9d bc 3c d6 25 ba 3d fd 17 37 3d
       -0.0052578663 0.023024226 0.09089248 0.04470061
0001c0 30 1c 02 be 53 e2 5a 3d 39 73 5d 3d de fd 54 3d
       -0.12706065 0.053438496 0.054064963 0.05199992
0001d0 18 20 0d 3d e1 37 62 3d cc c8 bb bd d2 cf 86 bb
       0.034454435 0.05522907 -0.09169158 -0.0041141296
0001e0 72 7d b2 bb 94 1a 1b bd ff 06 c7 bd b0 94 f8 bc
       -0.005447083 -0.037867144 -0.09718131 -0.030344337
0001f0 19 0e 8c 3d af f4 13 3e e9 32 f2 bd 4c b2 0d 3d
       0.068386264 0.14448808 -0.118261166 0.034593865
000200 84 e6 5d bd 5b 90 a7 3d 2c 2a d4 bc f0 84 ac 3d
       -0.054174915 0.081818305 -0.025899015 0.08423793
000210 44 e6 19 bd 6d d2 ad 3d f5 b7 9a bd 24 89 b3 bd
       -0.037573114 0.08487401 -0.07554618 -0.08766392
000220 c2 9d 7d 3d 9f 57 db bd 7f 49 42 3d 2b f9 16 bc
       0.061918028 -0.10710072 0.047433373 -0.00921468
000230 3a f1 8b 3d cc ec c8 3d d1 73 8f 3d 74 a6 f4 3c
       0.0683312 0.098107904 0.07004512 0.029864527
000240 a9 eb ab bd ac 72 04 3d 57 ec 9f 3d e1 c0 8f bd
       -0.08394558 0.032335922 0.0780875 -0.070192106
000250 60 7b b3 3d 0d 95 8b bd 8c cf 0e bd 15 98 d1 bd
       0.08763766 -0.068155386 -0.0348659 -0.102340855
000260 70 f3 c7 bd f9 3b c7 3d db 9e aa bc 6b 58 a6 3d
       -0.09763229 0.09728236 -0.020827701 0.08122333
000270 51 98 b5 bc a0 1b 0b 3b 74 72 b9 3d ce 19 3c bd
       -0.022167357 0.0021226183 0.09055033 -0.045923047
000280 cd 72 a3 bd 63 7d 2f 3d 9a ba a9 3d 3c bc c7 3d
       -0.07980881 0.042844187 0.082875445 0.097527
000290 0a cc eb bd ae ac c5 3c 98 9a 89 3d 32 cb ec bd
       -0.11513527 0.024130192 0.067189395 -0.11562194
0002a0 9e 2b ab bd ea af 46 3c 26 65 cb bd 41 b3 a6 3d
       -0.08357929 0.012126902 -0.09931402 0.08139659
0002b0 ff bb f6 bd 27 b1 72 bd dd 20 ad 3d ca cd b8 bd
       -0.12047576 -0.059250977 0.08453534 -0.09023626
0002c0 c9 d0 02 be b0 be cb bd 6c fc ba bd 5d 16 ae bd
       -0.12774958 -0.0994848 -0.09130177 -0.08500359
0002d0 c7 95 b5 bd b4 42 9e 3d 98 a6 d8 3d 33 8b 97 bd
       -0.088664584 0.07727566 0.1057865 -0.07399597
0002e0 72 d3 61 bd b6 af b2 3d 6c a3 ee bc a9 bf d0 3d
       -0.05513329 0.087249205 -0.02913066 0.10192806
0002f0 d8 4f ef 3d e5 78 ce bd c8 3f eb bc bc 84 9e 3c
       0.11685151 -0.100816526 -0.028716937 0.019350402
000300 64 d9 b3 3c 00 91 7e 3d 49 65 ae 3d d6 bd ed bd
       0.021954246 0.06215 0.08515412 -0.11608474
000310 2e ae 93 bd b7 be ee 3d 10 90 94 3d 8a 9b e6 bb
       -0.072109565 0.1165747 0.0725404 -0.0070375847
000320 c0 cd 4b 3d 32 ee 1d 3c c4 68 77 3d 6b ab 47 bd
       0.049756765 0.00963931 0.060402647 -0.04874746
000330 b0 68 c5 bd 4e fc 47 bd 9f 38 b6 3d 7a 42 49 bb
       -0.09639108 -0.0488246 0.08897518 -0.003070979
000340 3b 43 57 3d aa ba a0 bd ce 46 63 3d 36 4e 90 bd
       0.05255435 -0.07848103 0.055487446 -0.070461676
000350 7b a5 04 be 9f ab 49 3d ea 28 6b 3c 60 dd 1c bd
       -0.12953751 0.049235936 0.014353016 -0.038297057
000360 58 e4 9e bd 7a f6 f8 3c 45 83 ae 3d 7e 71 9c ba
       -0.07758397 0.030390967 0.085211314 -0.0011935679
000370 ef e0 cf 3d c1 96 81 bd 3a a1 4b 3d 4b c1 fa bc
       0.101503246 -0.06327582 0.049714305 -0.030609747
000380 75 2a 7a 3d c9 3f 47 bd 4a e0 e8 3c ac f1 8c bd
       0.061075646 -0.048644815 0.028427262 -0.06882033
000390 61 7c 36 bc 7b b5 06 be 69 7f 5a bc 4e 4c 61 3d
       -0.011138053 -0.13155167 -0.013336041 0.05500441
0003a0 1a 39 0f bd 6a f4 74 bd be 16 a8 3d dd 6d 49 bd
       -0.034966566 -0.059803404 0.08207463 -0.04917704
0003b0 ce 89 05 bb 7f 87 ed 3d 5c 42 65 3d 83 4e 49 3d
       -0.0020376327 0.115981095 0.05597149 0.04914714
0003c0 8d 24 b0 bc c2 b8 81 3b 99 48 04 be 3e a6 8e 3c
       -0.021501804 0.0039587924 -0.12918319 0.017413255
0003d0 dc a3 4f bd 7d c5 b5 bc cc aa a2 3d da cd 97 3c
       -0.050693378 -0.022188896 0.07942733 0.018530775
0003e0 0b 39 0d 3d 2a 11 f2 3d 15 94 17 3c b2 fd ef 3d
       0.03447823 0.1181968 0.009251614 0.117183104
0003f0 e5 25 d7 bc e9 c0 8d bd 51 d6 e3 bc 14 71 bc 3d
       -0.026263187 -0.0692156 -0.027812155 0.092012554

layers.1.nonlinear.2.bias f4 [64]
000000 96 a6 68 bd 0b 47 fe 3c 5c a9 28 3d 4c b6 e4 bb
       -0.056799494 0.031039735 0.04117714 -0.0069797393
000010 78 ea 2a bd 15 53 f1 bc ac 51 fd bc dd 40 09 bd
       -0.041727513 -0.029458562 -0.030922733 -0.033509124
000020 3a b4 61 bd aa bc 0d 3e 22 f0 cc 3d 5d a1 c6 bd
       -0.055103518 0.13841501 0.10006739 -0.09698746
000030 40 e4 88 3d 65 e7 c8 3d ea f3 81 3d 9b 3a 0f be
       0.0668416 0.0980976 0.06345351 -0.139872
000040 92 1e e7 3c bb 56 20 bc 42 13 ad bd b7 99 6b bd
       0.02821282 -0.009786303 -0.08450939 -0.05751964
000050 b4 7e 6a bc ce a2 43 3d 20 87 c7 bd 40 87 8e bd
       -0.014312435 0.047762685 -0.0974257 -0.06959391
000060 27 45 03 be 16 31 95 bd 54 bf b3 bd 86 ab 07 3e
       -0.12819348 -0.07284753 -0.08776727 0.13249025
000070 3e 34 8f 3d bb 3a 02 be 73 88 fe 3c cb 21 65 bd
       0.06992386 -0.12717716 0.031070923 -0.05594043
000080 91 c7 b7 3d e8 6f 8a 3d fa ff 7b bd d4 28 d8 3d
       0.08973611 0.06759626 -0.061523415 0.10554662
000090 30 d3 51 bd ed 81 e1 3d b2 f4 11 be 60 b8 07 be
       -0.051226795 0.110111095 -0.142535 -0.13253927
0000a0 31 a4 3a bd a3 f0 f9 bd 82 3f d2 bc 28 2f 95 bd
       -0.04556674 -0.12204101 -0.025665049 -0.07284385
0000b0 92 87 f7 bd ff c8 05 be 44 d8 06 3c 28 77 0d 3d
       -0.12086405 -0.13064955 0.008230273 0.034537464
0000c0 0c 30 b6 bc b1 8e bf 3d af b7 13 bd e5 da 4b 3d
       -0.022239707 0.09353388 -0.036063846 0.0497693
0000d0 23 8b b6 3c 1e fe a5 bd 46 be 30 3d ba 34 c0 3c
       0.022283142 -0.0810511 0.04315021 0.023462642
0000e0 2e 24 2e bd 1a 59 03 be 17 fe ca bd b0 b7 ed 3d
       -0.042514972 -0.12826958 -0.09911745 0.11607301
0000f0 a3 37 39 3d 63 38 f5 3d e1 b9 b3 bd 3e 64 35 3d
       0.045219075 0.119736455 -0.08775688 0.04428505
