Results/pikan_4d_model_fixed.pth (torch, 276046 bytes, 19 tensors)

layers.0.linear.weight f4 [64, 4]
000000 d3 a8 7c 3e 84 63 ee 3e 3c b7 78 bc 73 63 6b 3e
       0.24673776 0.465603 -0.015180405 0.22987156
000010 d4 ac 8e bd 40 fe 7a be 2d af b3 bd 3b 2a 94 be
       -0.06966558 -0.24511051 -0.087736465 -0.2893847
000020 81 50 b4 bc 3e 11 96 3d 75 13 d6 be b2 20 e1 be
       -0.022011044 0.073275074 -0.4181172 -0.43970257
000030 ab 43 ba be 6b 42 6d 3e 2f d6 b5 be 5b 5f 03 3f
       -0.36379752 0.23169868 -0.35514972 0.51317376
000040 1d cb ac 3e cb d9 a4 bd ab 4c f5 be 20 0b e4 3e
       0.33748713 -0.08049353 -0.47910056 0.44539738
000050 e6 b9 a0 be a1 17 73 be 0a 0f dc bd 0c 20 b7 3e
       -0.3139183 -0.23739482 -0.10745056 0.35766637
000060 0d c3 f2 3e 7f 10 4e 3e 2d 85 49 be c3 ea f1 3e
       0.47414437 0.2012348 -0.19679709 0.4724942
000070 39 9f d0 3e 3a 32 ec bd c6 3f 22 3e b0 7f d8 be
       0.40746477 -0.115330175 0.1584464 -0.42284918
000080 f0 38 44 3d 21 65 74 bd 88 61 03 3e f1 08 d9 3c
       0.047905862 -0.059666757 0.12830174 0.026493521
000090 ac 71 a4 3e b3 90 8c bd bf 3e d1 3e 88 30 12 be
       0.32117975 -0.06863537 0.40868184 -0.14276326
0000a0 f0 7c be 3e 19 70 8a be bb bf 7a bd 48 bf 43 3e
       0.37204695 -0.2703865 -0.061218005 0.19115937
0000b0 87 f1 d2 3e 75 f8 7c be d6 61 af 3e 63 eb c9 3e
       0.41199896 -0.24704154 0.3425433 0.39437398
0000c0 24 b7 08 be e8 5b 5c be 32 70 34 be 94 9d 9c 3e
       -0.13351113 -0.21519434 -0.17620924 0.30588973
0000d0 21 9c 95 be fe 6e 16 3d e8 c1 a7 be 6e b3 d2 3c
       -0.2922068 0.036726944 -0.32765126 0.025720324
0000e0 24 38 99 be 01 d9 e7 bd 81 1c a9 3e b0 e8 84 be
       -0.29925644 -0.11320687 0.3302956 -0.25958776
0000f0 ae 72 2c 3e a2 77 04 be 69 e2 b8 3e c9 64 9f be
       0.16840622 -0.12936261 0.36110237 -0.3113158
000100 ec b2 45 3e 82 1d 4b be b3 f3 da be 49 ca 32 3c
       0.19306535 -0.19835475 -0.42764053 0.010912486
000110 37 63 cf 3e c3 c7 58 be 58 e7 af be f4 2d ad 3c
       0.40505382 -0.21169953 -0.3435619 0.021140076
000120 59 3a 59 be 87 ca d6 be a0 b3 e5 be 82 5c a9 bd
       -0.21213664 -0.4195139 -0.44863605 -0.082695976
000130 d9 95 0c 3e 2b e2 8e 3e 59 02 5e 3d dd 2c dc be
       0.13729037 0.27906927 0.054201458 -0.43002978
000140 0d f8 06 be 18 33 e8 be 8c 8f de be 13 97 a2 bd
       -0.13180561 -0.4535148 -0.43468893 -0.07938971
000150 e6 66 b0 3e f0 0e ba 3e 28 e6 d0 bd e2 f0 2c 3e
       0.34453505 0.3633952 -0.10200149 0.16888765
000160 5c dc be 3d 03 7f 90 be c6 e8 df 3c 9b 91 7e bd
       0.09319374 -0.28221902 0.027332675 -0.06215058
000170 37 0c 69 3e 2b ba 0e bd 6b cb b5 bc f8 9b be 3e
       0.22758566 -0.034845512 -0.022191724 0.3722837
000180 a6 e5 83 3e b8 6f c2 be a9 cc 39 bd af 9d 91 3d
       0.25761145 -0.3797586 -0.045361195 0.07110154
000190 c7 35 9c 3e 2d 52 10 3e 1d 1c 08 3e cf fe 76 be
       0.3050978 0.14093848 0.13291974 -0.2412064
0001a0 a7 65 84 3e ab 02 09 be d5 33 b7 3e dc d3 19 be
       0.25858805 -0.13379924 0.35781732 -0.15022224
0001b0 b2 4b b6 be a0 46 1c 3e b6 d5 a0 be b1 d6 4d 3e
       -0.35604626 0.15261316 -0.31413049 0.2010143
0001c0 44 34 8e 3e 78 d1 35 be b5 e9 4d be 2a 54 a4 3e
       0.2777425 -0.17755687 -0.20108683 0.32095462
0001d0 fc b8 d6 be 36 9a d1 bd 37 66 55 3e e5 a4 23 bd
       -0.41938007 -0.102344915 0.20839773 -0.039952178
0001e0 9f ae c5 3e e5 94 33 be 3b 57 34 be 6d 2d 9d 3e
       0.38609788 -0.17537268 -0.17611401 0.3069872
0001f0 6b d6 f5 be 17 90 e4 3e 0f 36 9c 3d 4d a3 0b 3e
       -0.4801515 0.44641182 0.07627498 0.13636513
000200 d4 6e 56 3d 27 22 b6 be 1b 8c 87 3b d8 70 09 bd
       0.052351788 -0.3557293 0.004136575 -0.03355488
000210 ac 72 88 be f5 04 ce 3d ba e9 a2 bd 35 32 d1 bd
       -0.26649988 0.10059539 -0.07954736 -0.10214654
000220 b0 17 08 3f 0f bb d1 3e 25 13 8d 3e 92 a4 9e 3c
       0.53161144 0.40963027 0.2755367 0.019365583
000230 d4 8a f7 bd 27 47 89 be 01 2a 59 3e 1c e2 9d bd
       -0.12087026 -0.26812097 0.2120743 -0.077091426
000240 93 e2 e2 3e d2 11 ca be bd b7 87 bd 55 05 05 3e
       0.44313487 -0.3946672 -0.06626842 0.12990315
000250 d7 1f 23 3e b5 d5 4d 3e cc c7 5f bd a7 41 98 3e
       0.15930115 0.20101054 -0.0546339 0.2973759
000260 0d b0 ae be 13 63 9c be bf 3b 28 3e 3d b0 1d bd
       -0.3411869 -0.30544338 0.16429041 -0.038498152
000270 fe e6 b2 3d e1 92 9f be 22 3a d3 be 3f ac a8 3d
       0.087354645 -0.31166747 -0.4125529 0.08235978
000280 9f e4 ec 3d 2e 1e a3 be 45 c2 1d be af 72 77 be
       0.115670435 -0.31858963 -0.15406139 -0.24164842
000290 94 ca 7b 3d 1a 42 fa 3e c1 9f a3 3e 2f 24 c8 be
       0.06147249 0.48878556 0.3195782 -0.39090106
0002a0 4a 16 0c be 1d c5 3c 3e 00 f1 9c be 3b 7b 75 3e
       -0.13680378 0.18434568 -0.30652618 0.2397279
0002b0 33 8a ad 3e c0 19 f9 3e 41 10 79 3e 14 48 ab be
       0.338945 0.48652458 0.24322607 -0.3345343
0002c0 ea 58 ff be e4 ab eb 3e 68 4f ec be 50 a8 ad be
       -0.49872524 0.4602958 -0.46154332 -0.33917475
0002d0 59 68 33 be ea 77 66 3d 5e 3b 44 be 99 f1 84 3e
       -0.17520274 0.056266703 -0.19163272 0.25965574
0002e0 88 24 da 3e c0 1f 43 3d fa 20 a0 be 7c ee c0 be
       0.42605996 0.0476377 -0.3127516 -0.3768195
0002f0 c7 ae 38 3e 52 78 2e 3e e5 d5 93 3d 33 88 e6 be
       0.18035422 0.17038086 0.072185315 -0.45025787
000300 15 7e ec 3e ae 73 d9 3e db 86 bb be 83 cf d2 3e
       0.46189943 0.4247107 -0.36626324 0.41173944
000310 59 f5 ad bd 93 6f 09 bf d4 b4 9a 3d c9 65 3e 3e
       -0.08494062 -0.53685874 0.075540215 0.18593515
000320 b6 1e 83 3e b8 f4 83 3e b3 a3 9e 3e cb 7c bb 3e
       0.25609368 0.25772643 0.30984268 0.36618647
000330 75 1b f7 3e 5a 16 de be 43 6f ee 3e d0 7c 7e 3e
       0.48263136 -0.43376428 0.4656926 0.248523
000340 f2 c5 95 be 9d 24 03 bf c9 a6 26 3e 5a 46 a3 3c
       -0.29252583 -0.5122774 0.16274561 0.019931007
000350 71 15 2d 3e 25 eb 41 bd f7 51 d8 be f5 7a 9b 3d
       0.1690271 -0.047343392 -0.42250034 0.075918116
000360 cc d4 ce bd 45 23 42 be 99 02 04 3e 29 b0 6e 3e
       -0.100991815 -0.18958767 0.12891616 0.23309387
000370 90 3a 53 bc 09 df f5 3e 2e 29 8b be 42 52 04 3f
       -0.01289238 0.48021725 -0.27179855 0.51688015
000380 f7 6e a9 be 41 0b 28 3e 96 d1 b0 3e 83 ec b2 3e
       -0.33092472 0.16410543 0.345349 0.3494607
000390 0d 79 4c 3d bb 2a fd 3c 0f 57 b2 3d 1a 23 7f 3e
       0.04992013 0.030904165 0.08708011 0.24915734
0003a0 11 b4 2f 3e e9 f5 ca 3e 36 12 46 3e 48 e3 b7 be
       0.17158534 0.3964074 0.19342884 -0.3591559
0003b0 52 57 b7 bd f1 a3 34 3d 04 73 6b be e9 49 d3 3d
       -0.08952202 0.04410166 -0.22993094 0.103168316
0003c0 4a bc 92 bd a2 9b fe 3d c4 c4 eb 3e b0 90 d8 be
       -0.071648195 0.12432028 0.46048558 -0.42297888
0003d0 ed 4e e0 3e f7 9f da be fe 25 b0 bb 28 bf 93 3d
       0.43810216 -0.42700168 -0.005375623 0.072141945
0003e0 c5 65 80 bd 65 e4 58 3e dd 73 25 be 78 81 d5 be
       -0.06269411 0.21180876 -0.1615748 -0.4170034
0003f0 ef d1 69 be 6d 7a 80 3e 00 19 80 3e 23 4b dd bd
       -0.2283399 0.25093403 0.25019073 -0.10805347

layers.0.linear.bias f4 [64]
000000 45 a8 ad 3d 15 18 12 bb ef b2 30 bd 6e 58 94 3e
       0.084793605 -0.0022292186 -0.043139394 0.28973716
000010 f6 44 a9 be ac 79 d1 be f0 05 83 be da e8 73 be
       -0.33060426 -0.4091314 -0.25590467 -0.23819295
000020 44 70 f6 3e 7e 07 da 3e 63 32 ad 3d f1 e4 91 3d
       0.48132527 0.4258384 0.08456876 0.07123745
000030 3d b2 82 be c0 1a 88 be bb 13 10 bb 20 67 6c be
       -0.2552661 -0.2658291 -0.0021984417 -0.23086214
000040 d8 e5 e2 3e 83 b2 dd 3e dd 9a bf be 94 a3 21 3e
       0.44315982 0.43300256 -0.3742284 0.15785056
000050 b4 81 20 3e 58 7c bd be 9d 65 96 be b1 c6 ca be
       0.15674478 -0.3700893 -0.293744 -0.39604715
000060 22 cb 6e 3d c4 6c 90 3e 8f 82 ec 3b 02 5c 57 3d
       0.05829919 0.28207982 0.0072177122 0.05257798
000070 b4 05 82 3d 7b f9 5e be 76 e3 03 be b1 b5 f4 3d
       0.06348744 -0.21774857 -0.12879738 0.119487174
000080 d3 94 95 bd 85 e0 90 3e 52 d5 8d bd e5 63 01 3f
       -0.073037766 0.28296295 -0.06925453 0.5054305
000090 7f 84 97 3e 6e 27 b9 3e 15 7d 54 bd a5 23 08 3e
       0.29593274 0.36162895 -0.0518771 0.13294847
0000a0 35 1a 94 be 4b b8 d6 bd 8a e6 d8 3e fb 8c 31 3e
       -0.28926244 -0.1048437 0.42363387 0.17338936
0000b0 c2 1a c2 3e 36 c6 be be 7e 72 1c 3e 0a 53 4b 3e
       0.3791104 -0.37260598 0.1527805 0.19855896
0000c0 40 6c 8a be f6 cf 1e 3d c9 e2 b6 be 55 67 5e be
       -0.27035713 0.038772546 -0.35719898 -0.21719106
0000d0 41 c6 a8 be e5 f6 f9 3e a8 3f 00 3c ec cc f2 3e
       -0.32963756 0.48821178 0.007827677 0.47421968
0000e0 f5 99 dc be 83 e7 29 bc 0c b3 46 3e a6 60 8c be
       -0.4308621 -0.010370138 0.19404238 -0.27417487
0000f0 14 87 41 be 19 0f ee be 5a 7a e4 3e 74 0a 91 be
       -0.18899184 -0.46495894 0.44624597 -0.28328288

layers.0.nonlinear.0.weight f4 [64, 64]
000000 c6 94 92 3c 4a f1 22 3b 5b 9f 29 3d 44 f8 8a bd
       0.017893206 0.0024863058 0.04141174 -0.06785634
000010 86 e6 11 3d af 36 e3 bd 8a f8 8a bd e2 8c 98 3d
       0.035620235 -0.110944144 -0.06785686 0.07448746
000020 8c 6a c8 bd c1 86 34 bd 89 0b a2 bc 2e 42 cf bd
       -0.09785947 -0.044073824 -0.019780891 -0.10120045
000030 0e e2 f3 3b 32 16 59 bd 67 68 ea 3d 30 fa ed bd
       0.0074427193 -0.052999683 0.114456944 -0.11619985
000040 11 2a e1 3d a8 54 c4 bd 8e e4 e8 3c f9 5d 5b 3c
       0.10994352 -0.095864594 0.028429296 0.013389104
000050 04 1d da 3d 0a 17 f3 bd b1 31 b2 bd 3e 1c 81 bd
       0.106500655 -0.11869629 -0.08700884 -0.06304215
000060 6f 54 a7 bd fd f0 5e bc b9 d5 c7 3c 2f ae 51 3c
       -0.08170401 -0.013607261 0.024393903 0.012797876
000070 ca 00 0d 3c 88 98 5a bd f6 08 c1 bd 29 d8 1c bd
       0.008606145 -0.05336812 -0.09425537 -0.038292084
000080 e3 f1 2e bc 2d 35 e0 bc 14 58 c1 3d 35 a9 c2 3d
       -0.0106777875 -0.027369106 0.09440628 0.0950493
000090 79 4e 72 3c e4 f9 30 3c 4a b5 b1 3d 97 32 e4 3d
       0.014789217 0.010801766 0.08677156 0.11142462
0000a0 a6 07 d4 bd be 81 4b bd 7a ac 10 3d 50 76 c1 3d
       -0.10353021 -0.04968428 0.035320736 0.094463944
0000b0 af f6 ff bc b7 1a 36 3d a0 92 e9 bd 54 7e ff bd
       -0.031245558 0.04445907 -0.114049196 -0.12475267
0000c0 39 4b df 3d 63 f3 a2 3d d3 9b b1 bd 56 0f 0f 3d
       0.109030195 0.079565786 -0.08672299 0.034926735
0000d0 83 c2 ad 3d a5 ee 7c bc 1f 37 80 3b 0e e8 03 3e
       0.08484366 -0.015437757 0.003912821 0.1288149
0000e0 0b 53 d6 bd 86 1f bf 3d e7 a6 98 3c 6d 4d 59 3d
       -0.10465058 0.093321845 0.018634273 0.053052355
0000f0 d0 70 c0 bd 04 ee c0 bd f5 89 7c bd 93 1b 4d 3d
       -0.09396517 -0.09420398 -0.061655004 0.050075125
000100 ef eb df bd 86 40 c8 bc 73 f3 01 3c 80 8c 79 3d
       -0.10933673 -0.02444483 0.007931578 0.060925007
000110 9c c9 d0 bd 87 23 23 3e 8a ea c4 3c 9a df 8c 3d
       -0.10194704 0.15931521 0.024037618 0.06878586
000120 bb e4 9a 3d 7d b6 af 3d 9a ff 6b 3d 23 9f 2a 3d
       0.07563158 0.08579729 0.057616808 0.04165567
000130 d8 1b 4e bd 59 27 07 bc 60 5a 32 3d 88 75 9b 3d
       -0.050319523 -0.008249127 0.04354322 0.07590777
000140 bd 8f 1b bd 19 e0 fd 3d 80 59 97 bd ce 9f 29 bc
       -0.037978876 0.12396259 -0.07390118 -0.010353042
000150 f7 3d 33 3d 36 e7 83 bc 43 c3 c6 3d 17 a0 f2 3d
       0.043760266 -0.01610146 0.09705212 0.11846941
000160 5a dc d6 bd 08 c3 8c bd 49 35 a6 bd 62 56 00 be
       -0.104912475 -0.06873137 -0.08115632 -0.12532952
000170 85 bc 23 bc 42 2e a9 3d 45 65 68 3d ab e6 cf bc
       -0.009993677 0.08260776 0.056737203 -0.025378546
000180 3d 3b 6e 3d c4 a4 51 bd fc 68 97 bd d5 9b ea bc
       0.058161963 -0.051182523 -0.07393071 -0.02863876
000190 c3 d1 f2 3d 03 73 d6 bc d7 68 0e 3e 48 37 59 3d
       0.11856415 -0.026177889 0.1390718 0.053031236
0001a0 0e 69 4a bb d1 cc 04 be 75 aa 1d 3d 40 f5 ee bd
       -0.0030885371 -0.12968756 0.03849264 -0.116678715
0001b0 43 2a 08 be 16 ca c5 bd 31 57 ff 3c 33 49 b8 bd
       -0.13297372 -0.096576855 0.031169506 -0.08998337
0001c0 99 63 22 bd 43 6f b1 bd f1 aa 0c be c1 f6 58 3d
       -0.039645765 -0.086637996 -0.13737084 0.052969698
0001d0 22 3b 83 bd 62 71 5a 3d 0e 07 a5 3d c7 72 45 bd
       -0.06407763 0.053330787 0.08057986 -0.048205163
0001e0 4b c8 11 bb 54 d7 90 3d c8 99 d1 3c 48 af 9a 3c
       -0.0022244628 0.070723206 0.025586024 0.018882409
0001f0 ff da 85 bd 51 a2 d5 3d b9 fb 4c 3d 71 5e d4 bd
       -0.06535911 0.1043135 0.05004475 -0.10369576
000200 97 5b 5f bd d6 87 17 bd 10 4f 23 bd 20 b8 88 bd
       -0.054530706 -0.036994778 -0.03987032 -0.06675744
000210 63 3d 6b bb 47 2a cc 3d 01 b0 c6 bc 2b 82 f5 bc
       -0.0035894744 0.09969001 -0.024253847 -0.029969295
000220 9a 66 ac bc 16 05 8c bc 43 94 92 3c 15 11 ec bd
       -0.021045018 -0.017092269 0.017892962 -0.11526696
000230 ad b1 8d bd 0f 33 7e 3d 41 b8 67 bd 7e 70 cf 3d
       -0.069186546 0.062060412 -0.056572203 0.10128878
000240 a3 5b 3f 3b 0f bf 89 bd 75 8e a1 3d ca 38 cc bd
       0.0029198907 -0.06725895 0.078885 -0.09971769
000250 cb 07 af 3d b9 7b a1 3d d9 c2 48 3d 34 8d 03 bd
       0.08546408 0.07884926 0.049013946 -0.032117084
000260 84 7d 06 3e 73 51 71 bd c9 a5 53 bc 6a e8 59 3c
       0.13133818 -0.058915567 -0.012917944 0.013300041
000270 df f9 ce bd ba c7 ec bc 0f 61 f2 bb 81 48 d5 3d
       -0.10106253 -0.02890383 -0.007396824 0.1041422
000280 1e d1 29 3e ea c7 fe 3d db 86 08 3d d0 bd 81 bc
       0.16583678 0.12440474 0.033331733 -0.01583758
000290 1e 8a 90 bc 4c aa 8d 3d ef ea a2 bd f8 2e cc 3c
       -0.017643984 0.06917247 -0.07954966 0.02492474
0002a0 9b 51 be 3d 0d dd 72 3d 1e 02 ba 3d e5 bc b5 3d
       0.09292909 0.05929284 0.09082435 0.088739194
0002b0 17 bf dd bc a8 33 44 38 13 3c 77 3d 90 37 fe 3c
       -0.027068658 4.677815e-05 0.060360026 0.031032354
0002c0 e0 42 e9 bd 09 b7 8c 3d 92 a0 d9 3d f0 2d 09 3e
       -0.113897085 0.06870849 0.106263295 0.1339643
0002d0 9a 91 23 3e 34 17 0e bd a6 96 d9 bc f6 ab f4 bd
       0.15973511 -0.034690097 -0.026561093 -0.119468614
0002e0 e4 ca 8b 3c 16 21 95 bd 3f 46 96 3d 3f d7 29 3d
       0.01706452 -0.07281701 0.07337617 0.04146504
0002f0 1a ae a2 bd 3a 75 79 bc 29 92 52 3b 1c 46 97 3c
       -0.079433635 -0.015225703 0.0032130575 0.018466048
000300 95 ff f2 3c 33 27 37 3d bc a4 17 3d e8 27 d6 3d
       0.029662887 0.044715118 0.037022337 0.1045683
000310 fa 14 08 3a 56 b6 ab bd b0 7c 57 3c 26 fb 94 3d
       0.0005191114 -0.08384387 0.013152286 0.07274465
000320 93 1d e8 3d 5e 9f f6 3d dc 19 87 3c 24 71 81 3c
       0.11333766 0.12042116 0.016491823 0.01580102
000330 65 dc d1 bd 59 e3 ed bd af e0 92 3d 46 13 ba bd
       -0.10247115 -0.11615629 0.07171761 -0.09085707
000340 b4 6e 51 bb b7 84 71 bd c4 94 02 3e 48 42 ab 3c
       -0.0031956853 -0.058964457 0.12752062 0.020905629
000350 45 0a ab bd 5c ae 9c bc ba 60 ac 3d 35 6d cc 3d
       -0.08351568 -0.01912611 0.08416887 0.09981767
000360 97 5a 9f 3d 71 06 82 bd 1d ac 28 bc c4 af 88 3b
       0.077809505 -0.06348885 -0.010294941 0.0041713435
000370 4d 24 47 bd c0 09 d2 bc fc 76 a3 3d 70 b2 ec bd
       -0.048618603 -0.025639415 0.07981679 -0.11557472
000380 7e dd 26 bd 08 5d ef bd 62 b0 f5 bd 93 35 8a 39
       -0.040738575 -0.11687666 -0.11996533 0.00026361327
000390 33 28 b7 bd c2 bf ce bc 67 5f d7 bd 51 bd 9c 3d
       -0.08943214 -0.025237922 -0.105162434 0.07653297
0003a0 b9 af f7 bd ab 6f d0 bd 7d 50 20 3d 14 fc 46 3d
       -0.12094063 -0.10177549 0.03913926 0.048580244
0003b0 52 4c c0 3d 66 2f b6 3d 02 ef 30 bd 5c 11 10 bd
       0.09389557 0.08895759 -0.043196686 -0.035172805
0003c0 c7 a6 37 bb f2 20 ba bb e1 e2 08 3e ca 15 a1 3d
       -0.002802299 -0.005680197 0.13367797 0.07865484
0003d0 70 e4 e6 bd 99 fd 9a bd 61 33 ba bd b8 b5 89 3d
       -0.1127404 -0.07567901 -0.09091831 0.06724113
0003e0 51 05 76 bd 0f 03 3f bd a4 8b fc 3d 65 cb aa bd
       -0.060063664 -0.046633776 0.12331322 -0.08339576
0003f0 fe bf 40 bd fb 06 a7 bd 91 26 db 3d b1 a0 a8 3d
       -0.047058098 -0.08155628 0.10700715 0.082337745

layers.0.nonlinear.0.bias f4 [64]
000000 2e 6c a0 3d ba 5a 91 3c 2f 8e 6c 3d 27 66 a7 bd
       0.07833134 0.017743457 0.057752784 -0.08173781
000010 01 09 af ba 3a c1 b2 3d 31 b2 8f 3d 86 48 e3 bd
       -0.0013354124 0.08728261 0.07016409 -0.11097817
000020 b6 1b f6 bc aa 3c 23 bc 49 62 e9 bc bb 4c bf 3d
       -0.03004251 -0.009963194 -0.028489249 0.09340807
000030 dd e8 ab bd 1f 12 a0 3d 79 fc 51 bd 5e 29 53 3d
       -0.083940245 0.07815956 -0.051266167 0.051553123
000040 f4 83 07 3d 26 29 9d 3c f8 33 a3 3c 57 6e 8b 3d
       0.033084825 0.01918466 0.019922242 0.06808155
000050 f5 7a ef bd a9 03 e1 bd a9 44 ea bd 36 a8 22 3d
       -0.11693374 -0.10987026 -0.11438877 0.0397112
000060 67 a8 b4 3d 5d 74 b1 bd a3 04 ed 3c 52 32 7c bc
       0.08821183 -0.08664773 0.028932875 -0.015392857
000070 93 bd d6 3d 2c c5 e0 bc f6 15 66 bd ce 7e 4f bd
       0.10485377 -0.027437769 -0.056173287 -0.05065804
000080 7b 5b 95 bd b4 64 a5 bc cd 7e 99 3d b7 2e 9b bc
       -0.07292839 -0.02018962 0.074948885 -0.018943174
000090 12 ba c5 3c 2a 0c b1 bd 66 dd f1 bc a8 bb c2 3d
       0.024136577 -0.08644898 -0.029524516 0.09508449
0000a0 cb 7a 05 be 85 eb ae bd 7a 5b d1 3d 8f 8b f9 3d
       -0.13035123 -0.085410155 0.10222526 0.12184822
0000b0 8b 16 d2 3d ee 4a 10 ba 8d e9 b2 3b cb 38 c7 bd
       0.10258206 -0.00055043295 0.0054599703 -0.09727629
0000c0 00 7c 4a 3b ed 7b a1 bd 2b f0 1e 3d c1 80 e8 bd
       0.0030896664 -0.07884965 0.03880326 -0.11352683
0000d0 27 8b da 3c 73 ec 1a 3c 6b b9 98 bc 0e c5 46 3d
       0.026677681 0.009455788 -0.018643102 0.04852777
0000e0 ac a2 99 bd e9 16 b4 bc 67 b8 07 be a4 5f d9 bc
       -0.0750173 -0.02198358 -0.13253938 -0.026534863
0000f0 fe f8 ab bc 9a 21 35 bc 0e 9d 35 bd f9 44 ee bd
       -0.020992752 -0.0110553745 -0.044339232 -0.11634249

layers.0.nonlinear.2.weight f4 [64, 64]
000000 31 38 96 3d b3 6c b2 bd 99 e2 fb bd 42 87 60 bd
       0.073349364 -0.08712139 -0.122990794 -0.054816492
000010 7a 12 aa bb 31 1d ce 3d bd 4c b8 bd 3f 8f 93 3d
       -0.005190191 0.100641616 -0.08999012 0.072050564
000020 84 fa 78 3c 86 91 6f 3d fb aa a1 3d 05 ac 58 3d
       0.015196446 0.05848839 0.0789394 0.052898426
000030 14 f8 1d bd a6 8a 8c 3c 71 eb c8 bd 4f 66 6e 3c
       -0.038566664 0.017155956 -0.09810532 0.014550759
000040 4a 4b 86 bd 39 da cb 3d df cd b0 3a 7a 0b db 3d
       -0.06557329 0.09953732 0.0013489089 0.10695548
000050 b3 c9 0d bd 9a c4 e5 bd ad d6 f1 3c 27 f5 b4 bd
       -0.034616183 -0.112191394 0.02952131 -0.088358216
000060 81 44 e2 3d d5 46 ab bd f3 d6 e7 bc b5 7e a1 3d
       0.11048222 -0.083631195 -0.028300738 0.078854956
000070 43 9f 15 bd 8a d1 a0 bc aa 2c 80 bd aa 1f 0c 3c
       -0.036528837 -0.019631166 -0.06258519 0.008552471
000080 72 4e fc 3d 0b 79 db bd fa f9 9d bd ba e9 07 bd
       0.1231965 -0.107164465 -0.07713695 -0.033181883
000090 ac 88 08 3e d8 fd 98 3d 43 b7 30 3d cc 96 97 bd
       0.13333386 0.07470292 0.043143522 -0.07401809
0000a0 af 8f 04 be d3 93 29 bc b1 46 9d 3d 2c 85 43 3d
       -0.12945436 -0.010350185 0.07679499 0.047734424
0000b0 0d 17 60 bd 9f 2a f7 bd 6a 9c 15 be d4 09 05 3e
       -0.054709483 -0.12068676 -0.14610448 0.1299203
0000c0 0c 6a 98 bc 95 55 0f 3d 14 bd 97 bd ce 69 99 3d
       -0.018605255 0.034993727 -0.07409111 0.07490884
0000d0 8c c6 9a bc 1d 64 8f 3d 23 e5 88 bd a8 68 b1 3d
       -0.018893503 0.07001517 -0.06684329 0.0866254
0000e0 39 bb 3c bc 30 9c fb 3d 05 a1 c0 bc 5e 6c 10 bd
       -0.011519247 0.1228565 -0.02351428 -0.035259597
0000f0 c0 41 ac bd b9 2f eb 3c 1d cb 35 bd af fe 9f 3d
       -0.08410978 0.02870928 -0.044383157 0.07812249
000100 01 46 c8 bd d9 0f 1a bd 29 ff cb 3c 43 c4 b6 bd
       -0.09778977 -0.03761277 0.024901943 -0.08924153
000110 ce 79 7c 3c 4a 10 8f bd c1 11 b4 bd 1e 8c 59 bc
       0.0154099 -0.06985529 -0.08792449 -0.013278035
000120 74 49 46 3d c3 24 45 bd 8b 7c 87 3c b9 42 f4 3b
       0.048409894 -0.04813076 0.016538879 0.007454243
000130 d7 6e 83 3c 68 7f 91 bd 84 d7 af bc 9a e4 bd 3d
       0.016044063 -0.07104379 -0.02146507 0.09272118
000140 33 c1 f0 bd c5 b1 df bd 41 8e 66 3d 76 39 ac bd
       -0.117556 -0.10922579 0.056288008 -0.08409397
000150 72 8a ad bd 6e fc eb 3d 0e 1d 67 bd d6 80 e0 3d
       -0.08473672 0.115227565 -0.056424193 0.109620735
000160 5f c3 02 3e 05 d8 e3 bd 78 e6 59 bd 82 cd d9 bc
       0.1276984 -0.11125187 -0.053198308 -0.026587252
000170 bf 8b 62 3d 91 a9 bf bd 3f 84 a3 bd 63 75 0e bd
       0.055309054 -0.09358514 -0.07984208 -0.034779917
000180 0e 53 3c bd cc 76 4c bd 0b 2f bd bd cd 71 64 3d
       -0.045977645 -0.04991798 -0.09237488 0.05577259
000190 08 a5 a6 3d 83 f8 37 3d 38 ae f2 3c 1f 5f e5 bb
       0.08136946 0.044914734 0.02962409 -0.0069998647
0001a0 33 13 65 3c 13 43 d2 3d 4b 8f 10 3d 65 1b c3 3d
       0.013981628 0.102667 0.035292905 0.095267095
0001b0 38 88 d3 3d 31 54 a3 bd e0 86 2a bd 6e ed b2 3d
       0.10328716 -0.079750426 -0.041632533 0.08736692
0001c0 2a 68 92 bd 5d e6 c0 bd 23 ec 53 bd f0 39 0e ba
       -0.07148774 -0.09418938 -0.05173887 -0.00054255035
0001d0 e6 ed cf 3d 30 50 d2 bc 27 ab e7 bd c0 3d 8d 3d
       0.101527974 -0.025673002 -0.113119416 0.068965435
0001e0 ad 82 f7 bd 6b 4b d4 bd 1e 37 c3 b9 c3 76 61 bd
       -0.12085471 -0.10365947 -0.00037234364 -0.0550449
0001f0 88 a6 c3 bd eb 60 da 3d 11 22 57 3b bd 44 b2 3d
       -0.09553248 0.10663017 0.0032826702 0.08704517
000200 a4 9c a8 3d 81 c7 d4 bd 80 4e 8f bd 56 de 0a bb
       0.08233002 -0.10389615 -0.069973946 -0.0021189651
000210 de d9 85 bc 9c d3 31 3c 05 9d a0 3c ab a7 cf 3d
       -0.016339239 0.010853674 0.019606123 0.10139402
000220 fc 70 e6 bd d8 37 4d bd 62 3f f3 3c 57 9d b8 3c
       -0.11252019 -0.050102085 0.02969331 0.022535963
000230 95 eb ff bd 97 56 92 3d 70 a0 68 3c 3c d3 a2 3d
       -0.124961056 0.07145422 0.0141984075 0.07950446
000240 54 4d 82 3d 0f 95 b5 bd 60 31 66 3a e7 99 b8 3c
       0.063624054 -0.08866321 0.0008781161 0.022534324
000250 66 90 19 bc 72 ce 62 bd 69 5a b1 bd 6a 00 ac 3d
       -0.009372806 -0.055372663 -0.086598225 0.083985165
000260 fd 33 61 3d cd 83 ec bd 1e 45 ab bd 3c b5 dc bd
       0.05498122 -0.115485765 -0.083627924 -0.10776755
000270 fe 09 ee bb 32 f1 d4 bd 82 6f 4d 3d bf db d9 3c
       -0.0072643748 -0.10397567 0.05015517 0.02659404
000280 0e 45 f6 bb 42 22 78 3d 27 f3 e5 3d d5 47 90 bd
       -0.007515556 0.060579546 0.11228018 -0.07044951
000290 f4 7c bf 3c bd 26 e6 bd ce ac 02 be d2 dd 99 3d
       0.023375012 -0.112378575 -0.12761232 0.07513012
0002a0 b8 9f 90 bd e5 87 5b bd 11 8b 83 bd 7b 14 8f 3d
       -0.07061714 -0.053596396 -0.06423009 0.06986328
0002b0 da 43 ac bc 84 9c 3a bd e4 d4 54 bb 20 33 4f bb
       -0.021028448 -0.04555942 -0.0032475526 -0.0031616166
0002c0 fa 92 81 3d b2 40 bf 3d 7a 72 7d 3c 5a fb 9a bc
       0.06326862 0.093385115 0.015469188 -0.018918682
0002d0 ab 93 d0 bc 56 7f 4d bd f2 7d 13 bd 63 10 b7 bd
       -0.025461039 -0.050170265 -0.036008783 -0.089386724
0002e0 b7 39 7f 3d 71 10 66 3d db c1 fd bc 99 ad d6 bd
       0.0623109 0.056168023 -0.030976227 -0.1048233
0002f0 c7 fd 86 3d c7 8b c4 3c 47 f9 b0 3d 92 10 89 bd
       0.06591373 0.023992432 0.08641296 -0.06692614
000300 1d b4 9f bd c2 21 75 3d 63 38 24 3d 7b 90 1c bb
       -0.07798026 0.059846647 0.040092837 -0.0023889828
000310 23 a5 1a bd 9b f8 86 3d 5c af 53 bc 08 96 2f bd
       -0.037755143 0.065903865 -0.012920227 -0.04286769
000320 62 72 10 bd 36 b4 a2 3d b8 ba 47 bd ce 42 97 3a
       -0.035265334 0.07944529 -0.048762053 0.0011540295
000330 07 d4 08 bc 8a 5d 27 bd fb f9 66 bd 41 24 c9 bd
       -0.0083513325 -0.04086069 -0.056390744 -0.09821368
000340 31 23 1b 3d 38 51 02 be 1e 29 bc bc 93 37 aa 3d
       0.037875358 -0.12726295 -0.022968825 0.08311381
000350 b9 e2 38 3b 16 e7 67 bb 4b ca 2c 3d 24 bc 18 3d
       0.002821131 -0.003538554 0.04218511 0.0372888
000360 48 dc db bd a9 81 ab 3c cc 4b 66 3d 90 3a 81 3d
       -0.10735375 0.02093585 0.05622463 0.06309998
000370 5b d4 13 3d 67 5e 67 3d 4f ae 55 3c e3 35 c5 3d
       0.03609119 0.056486513 0.013042047 0.09629419
000380 04 69 54 3d 8d ba 8e 3d f6 6a ac b9 43 b8 86 3d
       0.051857963 0.069691755 -0.0003288609 0.06578114
000390 3d c0 ac 3d 2d 35 53 3c ff e7 1f bd db 7e 80 bd
       0.08435104 0.012891096 -0.039039608 -0.06274196
0003a0 b0 26 e4 3d 26 8f fa 3d 9c cb 97 3c 56 83 b5 3d
       0.111401916 0.12234335 0.018529706 0.08862941
0003b0 01 8c f7 bd 9f 8e 90 3d 6d a8 c3 3d c4 f0 a6 bd
       -0.120872505 0.07058453 0.09553609 -0.08151391
0003c0 8e 00 d9 bd 8b c5 81 3d d1 d4 8e 3b 81 08 ba bb
       -0.10595809 0.063365065 0.004358866 -0.0056772833
0003d0 68 8c f0 bd be 26 73 ba 6e c3 93 bd a2 aa c8 3d
       -0.1174553 -0.00092754874 -0.0721501 0.097981706
0003e0 d7 e8 f9 3d f5 06 3d 3c a6 eb e5 3d f4 21 c7 3d
       0.12202614 0.011537303 0.11226587 0.09723273
0003f0 e8 f9 f7 3d e3 a9 12 bd 86 44 a5 bd 05 80 f7 bd
       0.12108213 -0.035806548 -0.080697104 -0.12084965

layers.0.nonlinear.2.bias f4 [64]
000000 d7 34 23 3d f0 68 ab 3d d2 7b 0f 3d 58 95 a0 bd
       0.039845314 0.083696246 0.035030194 -0.07840985
000010 58 71 cd 3d 96 98 d1 bd 01 54 5f 3d c2 ef b5 3c
       0.10031384 -0.102341816 0.05452347 0.022209052
000020 23 91 ed 3d 15 25 11 bc c5 b3 8b bd 79 fd b7 bc
       0.11599948 -0.008858939 -0.06821398 -0.022459732
000030 a1 d8 ed 3d e5 c4 7c 3c 97 76 85 bd c1 57 0d 3d
       0.11613584 0.015427803 -0.0651676 0.034507517
000040 3b b8 da 3d 44 9f f2 bd c1 97 49 3c ed b1 bb bd
       0.106796704 -0.11846784 0.012304247 -0.09164796
000050 5a 77 e6 3d 43 58 91 bd 6e a9 d7 bd c2 7c 5e bd
       0.11253233 -0.07096913 -0.10530363 -0.054318197
000060 38 37 88 bd 18 d2 39 bb 74 db 08 3d 20 2b ad 3b
       -0.06651157 -0.0028353985 0.03341241 0.005284682
000070 8f 83 36 3d e2 05 e8 bb 6c e3 ea 3d 89 39 77 3c
       0.044559058 -0.0070807794 0.114691585 0.015089401
000080 bd 2f c4 3d 64 ee ed bd b5 bc f7 3d 28 1b 32 3c
       0.09579418 -0.11617735 0.1209654 0.010870732
000090 16 69 e3 3d a5 1e f4 3d 3f ff ee 3d a4 09 bd 3c
       0.11104028 0.119199075 0.11669778 0.023075886
0000a0 b7 b7 d9 bd 8d 12 2f 3c de 6d 91 3d 40 d7 82 bc
       -0.10630744 0.010685575 0.07101034 -0.01597178
0000b0 87 2a 08 bd 92 5f 3a bd 86 6b ef 3d ad d6 91 bd
       -0.033243682 -0.0455013 0.1169043 -0.07121024
0000c0 47 3c aa 3d b8 3f 28 3d fc 64 08 3e 76 75 1a bd
       0.08312278 0.041076392 0.13319772 -0.037709676
0000d0 eb 86 d1 bb 4c 78 9c bd 64 51 b5 3b f1 a2 06 3e
       -0.0063942573 -0.07640132 0.005533384 0.13148095
0000e0 e1 6a df bc d1 4f ac bd 22 6f a9 3d af a7 4d 3b
       -0.027272644 -0.08413661 0.0827315 0.0031380465
0000f0 9e cb 8a bd 74 ed fe bd c1 cb 1b bd 84 bf d8 3d
       -0.06777118 -0.12447634 -0.03803611 0.10583404

layers.1.linear.weight f4 [128, 64]
000000 5a fa b4 bd 19 48 3d b9 53 09 61 bd 3b 4c e6 3d
       -0.08836813 -0.00018051303 -0.054940533 0.112450086
000010 12 b5 01 be a1 b0 d0 3b 6e d1 33 3d 06 14 bd bd
       -0.12666729 0.006368712 0.0439009 -0.09232335
000020 4b ab 87 bd 29 a7 86 bd 19 b6 30 39 ff 76 dd bd
       -0.066244684 -0.06574852 0.00016852505 -0.10813712
000030 16 0e 03 bd f9 f8 e2 3d 86 d2 b5 bd 2e 4e 2e bc
       -0.031995855 0.11082644 -0.08878045 -0.010638757
000040 e8 8b 84 bd b7 20 b4 bd 3e 44 a7 bd 0f f1 f3 bd
       -0.064719975 -0.08795302 -0.08167313 -0.11911213
000050 8e 46 cc bd 19 9e c2 bd 2f 0a a4 3d 5d 55 a6 3c
       -0.09974395 -0.09502811 0.08009755 0.020304376
000060 46 03 7a bd 7d 98 87 bd 84 a8 1a 3c 3f 5f 14 bb
       -0.061038278 -0.06620882 0.009439591 -0.002263978
000070 c2 e3 78 3d e8 7e da 3d 9c c5 07 be 34 92 b6 bd
       0.06076408 0.10668737 -0.13258976 -0.08914605
000080 a4 9e 37 bd ff 23 32 3d 7b 72 ba 3c bd ab 79 3c
       -0.044829026 0.04349136 0.022759667 0.0152386995
000090 e4 bb e0 3d a3 e7 60 3d 3c 21 b8 3d a2 d1 14 3d
       0.10973337 0.054908406 0.08990714 0.036332734
0000a0 10 40 b2 3d cf 86 26 3d b9 b2 4d 3c a3 33 f2 3d
       0.08703625 0.040655907 0.012554818 0.11826255
0000b0 54 4b 76 3c 7b f8 ac bc ad 18 cc bd af 54 97 bd
       0.015032608 -0.021114578 -0.09965644 -0.07389199
0000c0 1d 58 bf 3d 07 9d be 3c a8 a8 de 3d f2 a6 69 bc
       0.09342978 0.023268236 0.108720124 -0.014260994
0000d0 0f 9e 8b 3d a3 cc 80 3b 1d 99 dd 3d 63 6f b2 3d
       0.06817257 0.0039306446 0.1082022 0.087126516
0000e0 76 79 c0 bd 3b bb 3a 3c 72 c7 82 3d 12 3d c2 3d
       -0.09398167 0.011397178 0.063856974 0.094843045
0000f0 18 50 3f 3d c3 c1 79 3d ad 71 e4 bd d3 ef f2 3c
       0.046707243 0.0609758 -0.111544944 0.029655373
000100 36 f0 01 bd 63 4a 38 3d 28 b7 b0 bb 8d dd 8c 3d
       -0.031723224 0.044992816 -0.0053929277 0.06878195
000110 a7 f1 e5 bd 45 fc b6 3d 19 3e 0c bd e2 8f 09 be
       -0.11227732 0.08934835 -0.03423891 -0.13433793
000120 ab 8f f6 3d 55 99 b8 bd 6c e6 cc bc 17 99 ea bd
       0.12039121 -0.09013621 -0.025012217 -0.11454981
000130 f1 46 0a 3d 80 1d 87 bd cb be ac bc 76 63 b3 3b
       0.03375906 -0.065974236 -0.02108707 0.005474503
000140 10 f4 b9 bd 86 a2 df bd 8e c6 8f 3d 96 0d ab 3d
       -0.09079754 -0.10919671 0.07020293 0.08352201
000150 29 7b c3 bc d8 f8 e1 3d d2 c5 a5 3c 1a 0c bf 3d
       -0.023862438 0.11033791 0.02023593 0.0932848
000160 4c 28 de bd 07 2c 66 bd 43 4b db 3d b7 b5 07 bd
       -0.1084753 -0.05619433 0.107077144 -0.03313228
000170 42 32 ee 3d f7 97 38 3d 2f 5d ba 3d f0 91 0d bd
       0.1163068 0.0450668 0.090998046 -0.034563005
000180 93 40 e2 bd 2d ee 03 3e 03 c6 c5 bd 15 5c a1 bc
       -0.11047473 0.12883826 -0.09656908 -0.019697228
000190 8f 79 cc 3d 16 b2 e1 3d 63 df 2d 3d 80 ac b5 bd
       0.09984123 0.11020295 0.042449366 -0.088707924
0001a0 b2 57 7d bd 05 db f7 3b 2a a6 f8 bc 48 37 ef bd
       -0.06185121 0.007563951 -0.03035267 -0.11680466
0001b0 1f bd a2 3d 55 e2 6b bd cf 25 8d bd 38 f5 09 3d
       0.07946228 -0.057588894 -0.06891977 0.033681124
0001c0 5f 41 37 bc 15 2e 03 be 0b 55 0e 3e 66 85 08 3d
       -0.011185019 -0.12810548 0.13899629 0.033330344
0001d0 12 98 82 3d f7 54 32 bd 0c 0a 78 bd 9c 50 fa bc
       0.06376661 -0.04353806 -0.060556456 -0.030556016
0001e0 d3 df 88 bd 10 b7 8f bd 5d 49 01 3e 30 b4 5d bd
       -0.06683316 -0.07017338 0.12625642 -0.05412692
0001f0 c0 7d 00 be 2f 6f ae 3d 57 2e f6 3d 8c 36 8f 3c
       -0.1254797 0.085173 0.120205574 0.017482065
000200 72 0c 72 3d 46 2f c4 3d a9 c8 10 3d 9e 00 f2 3d
       0.0590939 0.09579329 0.035347614 0.11816524
000210 21 d1 5b 3d de e9 3a 3d 6f 5f 46 3d 44 b0 a7 3d
       0.053666238 0.04563319 0.048430856 0.08187917
000220 bb 9f 42 bd 47 4d a5 bd b3 d3 99 bd ac 86 58 3d
       -0.047515612 -0.0807138 -0.075110815 0.052862808
000230 3f 49 99 3d fd 65 87 3d f4 88 a3 3d c8 42 b6 bd
       0.07484674 0.066112496 0.07985106 -0.08899456
000240 d3 0f cb bc 90 24 13 3d b5 88 77 3c 6d 8e c7 3d
       -0.024787819 0.03592354 0.015108277 0.097439624
000250 c7 49 d2 3c e3 3b 45 bd 8b c4 c7 bd 64 19 ec bd
       0.025669945 -0.048152816 -0.097542845 -0.115282804
000260 6b fd d6 bb a5 ea 00 3d c9 34 d9 3c 6b 62 cd 3d
       -0.0065609715 0.031473774 0.026514428 0.10028537
000270 c1 72 da 3d 4e a4 d2 bd 1f e8 c9 bd 00 16 d2 bc
       0.10666419 -0.10285245 -0.09858727 -0.025645256
000280 af de 53 3c cb 65 85 bd 54 24 1b bd 70 c8 9b 3d
       0.01293151 -0.06513556 -0.037876442 0.0760659
000290 5a 7e b9 bc d9 1f f5 bc 4b 32 c2 bd 5f 5c f7 bd
       -0.022643257 -0.029922413 -0.09482249 -0.12078165
0002a0 76 0e 5a 39 38 e7 52 bd 4d 3c 34 3d a9 ba d2 3d
       0.00020795487 -0.05149004 0.04400282 0.10289509
0002b0 49 5c d5 bd 54 2d 87 bd cb 92 85 3d b8 49 9c 3c
       -0.104179926 -0.066004425 0.06522139 0.01907812
0002c0 64 22 a3 bd 94 0a d2 3c 8e 08 02 be 53 ae 14 3e
       -0.07965544 0.02563981 -0.12698576 0.14519624
0002d0 43 11 d7 3d 3b b2 a7 bd b1 ef 06 3e 25 e5 36 bd
       0.10501339 -0.08188292 0.13177373 -0.044652123
0002e0 ae e4 01 3e 06 7c 2e bd 18 4a b9 3d 23 57 31 bd
       0.1268489 -0.042598747 0.090473354 -0.04329599
0002f0 8f 90 a2 3d 08 38 90 bd 8f b1 e7 3c db 77 52 bd
       0.079377286 -0.07041937 0.028282909 -0.051383834
000300 15 1d 7c 3c 81 7b 31 bd c1 40 71 bc 54 55 2a bd
       0.015387793 -0.043330673 -0.014724911 -0.04158528
000310 82 74 80 bd 5f 7c 91 3d e2 4f e4 3d c7 90 80 3d
       -0.06272222 0.071038 0.11148049 0.06277614
000320 af d0 6e 3d d7 33 72 bd af fc 80 3d 68 4c 11 bd
       0.058304485 -0.05913147 0.062981956 -0.035473257
000330 65 ba fa 3c e2 b9 6e 3d 76 f6 2a 3d d2 63 e0 bd
       0.030606458 0.05828274 0.04173895 -0.10956539
000340 b0 99 93 bd b0 7f a4 bd 57 94 c7 bd 7d 26 4f bc
       -0.07207048 -0.08032167 -0.097450905 -0.012643454
000350 99 b3 c2 bc 45 3a 06 be 48 d8 7d 3b 95 90 8f 3d
       -0.02376728 -0.13108166 0.003873365 0.07009999
000360 2c 52 f7 3d bc 10 2a 3d 0c 48 08 bd 7b c3 af bc
       0.1207622 0.041519865 -0.033271834 -0.021455517
000370 09 f5 df bd 82 e8 f8 3d 96 6f 5c 3d 2f 33 d3 3d
       -0.109354086 0.12153722 0.053817354 0.10312497
000380 c9 5e 02 3d 1f 04 5c 3d ee 94 d2 bd b4 c1 5b 3d
       0.031828675 0.053714868 -0.10282312 0.053651527
000390 60 4c e8 3b 23 c9 e3 3d 81 4b d6 3d 18 f4 08 3e
       0.0070891827 0.11122348 0.1046362 0.13374364
0003a0 19 a0 5a bd d8 ac ae bd 15 1f 25 3d ff 4f 9d bc
       -0.053375337 -0.08529061 0.040312845 -0.019203184
0003b0 39 80 3d 3d 70 f4 80 bd 7b 73 b6 3d 34 60 00 be
       0.04626486 -0.06296623 0.08908745 -0.12536699
0003c0 dc f7 ec 3c e5 d7 bf bb 86 a1 b9 3c d3 52 7c bb
       0.028926782 -0.005854594 0.022660028 -0.0038501516
0003d0 63 8e 0e be 87 13 d1 3d 40 df f6 3d 5e f8 96 3d
       -0.13921504 0.10208803 0.120543 0.07371591
0003e0 14 d6 86 3c d8 75 2f 3d 17 1c 66 3d 3f 8b e5 3c
       0.016459502 0.042836994 0.056179132 0.0280205
0003f0 0e b6 10 3c 84 fb e1 3d b7 8c 42 bd 10 62 0c 3d
       0.008832468 0.11034301 -0.047497477 0.034273207

layers.1.linear.bias f4 [128]
000000 8d df 9b 3d d0 66 6f bd a3 f3 7b bd fb 6a 38 bb
       0.07610998 -0.05844766 -0.061511647 -0.0028139937
000010 42 a6 90 bb 62 c0 36 3c 10 8d a4 3b 58 9e 93 bb
       -0.0044143507 0.011154266 0.005021699 -0.00450496
000020 df df 9c bd b9 24 c5 3d d0 41 cc 3d 42 e6 f6 bc
       -0.076598875 0.09626145 0.0997349 -0.030139092
000030 2f 88 c4 3d df b0 aa bd 92 74 54 bd be a9 aa bd
       0.095962875 -0.08334517 -0.051868983 -0.08333157
000040 0b 7a 75 3d 11 cb 26 bd 5b 21 56 bd cb 04 b4 bd
       0.059930842 -0.040721003 -0.052277904 -0.08789977
000050 30 13 d7 bb 6c 1a e0 ba f1 75 88 3d 2e 2a c9 bd
       -0.0065635666 -0.0017097718 0.066631205 -0.09822498
000060 dc d4 1a 3d 57 11 79 3d 35 d7 8e 3d 74 d3 f4 3d
       0.037800655 0.060807552 0.06974641 0.11954394
000070 0c ec bc bb 22 ae b8 bd 07 46 54 bd 4f 6f 41 3d
       -0.0057654437 -0.09017588 -0.051824596 0.047225293
000080 8a f5 35 3d 40 2d cc bc ed 1e 06 bd 9f f9 5c 3c
       0.044423617 -0.02492392 -0.032744337 0.013487249
000090 9c 03 14 bd 67 e3 90 bc 3b 92 fc 3d cc e2 b2 bd
       -0.036136255 -0.017686559 0.12332579 -0.08734664
0000a0 55 fe 6a 3d d4 2a 29 bc f1 8c d2 bd e1 ab 94 bc
       0.057371456 -0.010325152 -0.10280789 -0.018148364
0000b0 56 28 d9 3a fb c3 12 bd 85 a4 b6 3b 8e ce 06 3d
       0.0016567807 -0.035831433 0.0055738115 0.03291183
0000c0 04 a0 87 bc ac f6 61 3c 82 38 c9 bd 65 dd 38 bd
       -0.016555794 0.013791721 -0.09825231 -0.045133013
0000d0 14 27 1b 3a 12 ca 01 be be 32 a8 3d 87 84 e0 3d
       0.0005918604 -0.1267474 0.08212803 0.109627776
0000e0 c4 07 e8 bd 00 5f 00 3e 95 06 86 bd 39 f7 a2 bd
       -0.11329606 0.1253624 -0.06544224 -0.0795731
0000f0 51 0a ea 3c 72 d8 98 3c d9 83 d5 3d 25 3a f3 bd
       0.028569372 0.018657897 0.104255386 -0.118763246
000100 2e fe e3 3d 0c 2e b2 bd 62 9b 66 3c 16 69 95 3c
       0.11132465 -0.08700189 0.014075132 0.018238585
000110 62 53 f7 bd 40 46 e2 bd 59 6f c8 3d 57 81 ee bc
       -0.12076451 -0.110485554 0.09786863 -0.029114408
000120 9f b6 0d bc 4e 30 40 bb 93 cc e2 3d b8 e5 8e bd
       -0.008649497 -0.0029325667 0.11074176 -0.06977409
000130 81 98 a0 3d 21 6d 8c 3c 79 4c e6 3d f1 ad 99 bd
       0.07841588 0.01714188 0.11245055 -0.0750388
000140 1d 25 e6 3d c6 ac 8c 3d b3 9b 49 3b 03 16 ac 3d
       0.112375475 0.068688914 0.003076297 0.08402636
000150 63 59 ca bd 47 3c e5 3d d6 33 dc 3c b2 be e5 3d
       -0.098803304 0.111931376 0.026880186 0.11218013
000160 1b f2 d2 bd d5 66 db bd a3 8d 96 bd ed 6c dd 3c
       -0.10300084 -0.10712973 -0.07351234 0.027029479
000170 7e 95 7f 3d 10 62 11 bd 80 e3 9f bd 5b fa a9 bd
       0.062398426 -0.03549391 -0.07807064 -0.08299705
000180 1f 1f e1 bd 07 f2 95 bd 87 d0 f0 bd b7 27 c9 3d
       -0.10992264 -0.07321554 -0.117585234 0.09822028
000190 18 ca 59 bd 4f c4 2f 3d 00 a5 d8 3d 08 af 31 3d
       -0.053171247 0.042911824 0.10578346 0.043379813
0001a0 1d fe da bd 67 32 97 3d b5 81 c7 3d 1e 53 ed 3c
       -0.106929995 0.0738266 0.097415365 0.028970297
0001b0 b6 2f 98 bd 68 5d 77 3c 44 b6 86 3d 75 e4 0f bd
       -0.07430975 0.015097953 0.06577733 -0.035129983
0001c0 c5 b6 ac bd ea f1 0b 3e 5f bd 33 3d 9e d6 ee bc
       -0.08433298 0.13666502 0.04388177 -0.029155072
0001d0 9d e8 db bc 84 90 80 3d 52 f3 21 bd f6 ba 54 bd
       -0.026844317 0.06277564 -0.03953869 -0.051936112
0001e0 c6 66 0d bd 61 1d f7 bd 9f e0 ce 3d 89 dc 11 3c
       -0.03452184 -0.120661505 0.10101437 0.008902677
0001f0 78 30 97 3d 2a 20 a3 3d 25 31 e5 bd 45 65 39 3d
       0.073822916 0.07965119 -0.11191014 0.045262594

layers.1.nonlinear.0.weight f4 [128, 128]
000000 56 c0 56 ba c3 99 8e bd 23 08 43 b9 6e ca af 3d
       -0.00081921124 -0.069629215 -0.0001859968 0.08583532
000010 50 e9 39 3c 53 c8 af bc b7 22 a7 bd b5 5a 71 3d
       0.01134713 -0.021457827 -0.08160918 0.058924396
000020 9a 69 a9 bc 9e f1 43 3c 18 79 4c 3d 3a e9 a1 bd
       -0.020680238 0.0119594615 0.04992017 -0.079058126
000030 6b 56 05 3c 64 cf ba bd 4f e4 8a bd a1 02 2b 3d
       0.008138279 -0.09121588 -0.06781828 0.041750554
000040 70 c9 4f 3d 75 94 af 3d 9e c3 a1 3c d0 76 93 bd
       0.050729215 0.08573238 0.019746598 -0.07200396
000050 a7 54 76 3d a1 d6 80 bd 5e c5 9d bd 31 93 0c bd
       0.060139325 -0.06290937 -0.077036604 -0.03432006
000060 e3 79 55 3d bd 62 8a bb 53 9f 88 bd 27 d9 31 bd
       0.052118193 -0.0042231963 -0.06671014 -0.043419983
000070 df 70 9e 3d 7b af 8c 3d e5 6e a5 bc 05 28 82 3d
       0.07736372 0.06869408 -0.02019448 0.06355289
000080 37 2b 8b 3d 85 7f 8b 3c c2 1c ec 3c 5f 1a 65 3d
       0.06795352 0.01702858 0.028822307 0.055933353
000090 58 1e 40 bd 2f 98 98 3c 2f 5c e3 3c 8d ce a7 bc
       -0.046903938 0.018627254 0.027753918 -0.020484233
0000a0 6b 61 50 3d 80 b8 6a bd c5 67 9c bd 0c 7e 27 bd
       0.050874155 -0.05730486 -0.0763698 -0.040891692
0000b0 6c 9f ad 3d b5 c6 e3 bc cc 4f 25 3c 04 4d b9 bc
       0.08477673 -0.027804712 0.010089826 -0.022619732
0000c0 f5 0b 13 bc 51 15 98 bd 11 9d 88 3c 06 ce 81 3d
       -0.008975019 -0.07425941 0.016676458 0.06338124
0000d0 96 1f a2 3c b1 bf c4 3d d8 8e a8 3d 2c b2 9f 3c
       0.019790452 0.09606875 0.0823037 0.019494139
0000e0 10 5b 1a 3d a3 31 bc 3d a7 5e 91 bd d8 9c f2 3c
       0.0376845 0.09189155 -0.070981316 0.029615805
0000f0 55 3c 70 3c 45 0d a8 bd 3c 45 ab bd bb 05 27 bd
       0.014662822 -0.08205656 -0.08362815 -0.04077695
000100 a5 76 9b bd 1a e2 40 3d 09 c4 13 bd 5e c6 51 bd
       -0.07590989 0.047090627 -0.036075626 -0.05121457
000110 db 06 44 3d 4d 8c fd 3c 15 85 8e bd 37 f2 88 bd
       0.0478581 0.03095069 -0.06958977 -0.06686824
000120 08 b5 3e 3d bc d2 a0 bc df 2a 45 bd 21 4d 16 bd
       0.046559364 -0.019631736 -0.04813659 -0.03669465
000130 ae 9f a0 3d e4 f9 90 3d 19 03 41 3d df d6 5e 3d
       0.078429565 0.07078913 0.047122095 0.054404136
000140 c1 64 69 bd dd 19 84 3d 47 d1 6b bd 73 d1 6c 3c
       -0.056980852 0.064502455 -0.05757263 0.014454233
000150 39 a2 aa 3b dd 46 9f bd 35 8d ba bc 15 4a 0f 3d
       0.0052073267 -0.07777188 -0.02277241 0.03498276
000160 1a 18 be bd 3f 89 12 3d d5 33 9e 3c fd c7 3f bd
       -0.09281941 0.03577542 0.019311825 -0.046821583
000170 fc 00 a8 3d a8 bb 30 3c e0 5b c2 bd 56 34 80 3d
       0.08203313 0.010786928 -0.0949018 0.06259982
000180 67 b1 73 bd 34 f7 4a 3d d1 03 93 3d 15 7f 27 bb
       -0.059495356 0.049552158 0.07178462 -0.0025557925
000190 7c 64 ce 3c 05 54 c4 3b b7 87 eb bc 43 a7 66 bd
       0.025194399 0.005991461 -0.028751237 -0.056311857
0001a0 ea 42 14 3c d9 36 1e 3d f0 5d a6 3d ff 48 40 bd
       0.009049157 0.038626526 0.08123386 -0.046944614
0001b0 18 07 44 bd 39 04 2f bc 8e d0 2a bd 01 5a ad bd
       -0.047858328 -0.010682159 -0.0417028 -0.084644325
0001c0 7b 82 b8 bd 86 13 c2 3d 15 5e ca 3d 26 23 11 3c
       -0.09009262 0.0947638 0.09881226 0.008858478
0001d0 19 de 0c 3d bb a8 83 3d 17 5d 19 3d ee f9 40 bc
       0.034391496 0.06428667 0.037442293 -0.011778338
0001e0 96 ff 19 bd 7e 13 e9 bc 56 ec 9c 3d a4 42 b6 3d
       -0.03759726 -0.028451677 0.07662265 0.088994294
0001f0 a1 f8 2e 3d 6f 35 e5 bc ce 62 5d 3d c6 4d 80 bd
       0.04271758 -0.02797958 0.054049306 -0.06264834
000200 c0 97 24 bd 74 4c 4a bd 08 9f 71 3d 0d 73 6c bd
       -0.040183783 -0.049389318 0.058989555 -0.05772691
000210 78 34 63 bd 1b 51 e7 bc f2 fd a6 bc 00 72 2e 3d
       -0.05546996 -0.028236916 -0.020384762 0.042589188
000220 4f fe 5b 3d 27 d3 42 3c 01 3d 9c bd c5 5e e5 bd
       0.053709324 0.011891163 -0.07628823 -0.111997165
000230 82 d2 4a 3d b8 ce 77 3d b4 c7 2e bd d8 8e 57 bd
       0.049517162 0.060499877 -0.04267092 -0.05262646
000240 15 bd 8a bd 82 2a ab 3c 18 67 44 bd ac 0b 9b 3c
       -0.06774346 0.020894293 -0.04794988 0.018926464
000250 18 32 83 bb 4e 69 82 3d e0 67 aa bd 44 a3 3a 3d
       -0.0040037744 0.063677415 -0.08320594 0.04556586
000260 48 69 84 bd 1e fc fd 3c 40 57 e5 bc 1a dc 60 bd
       -0.06465393 0.031004008 -0.027995706 -0.054897405
000270 ab 4a 8f bd 2a d2 ad bd f2 43 89 bd f1 94 7e 3b
       -0.06996664 -0.08487351 -0.06702413 0.00388461
000280 52 76 90 3d 13 09 45 bd b1 34 45 3d 8a d2 0d bc
       0.07053818 -0.048104357 0.048145954 -0.008656153
000290 b9 f6 c6 bd a2 18 2e bd 27 5f ef bb 7f f0 74 3c
       -0.09715027 -0.04250396 -0.007305044 0.014949917
0002a0 37 ff 6d bd a1 25 17 bd 60 58 0f 3d d3 55 de bb
       -0.05810472 -0.03690112 0.03499639 -0.0067851334
0002b0 7d d6 09 bd 84 42 4a 3d 16 e4 88 bd 2c 00 da 3b
       -0.033651818 0.04937984 -0.06684129 0.0066528525
0002c0 d6 e8 db bc 4e 9c 14 3d d5 e2 81 bd f4 00 1e bc
       -0.026844423 0.036281876 -0.06342093 -0.009643782
0002d0 69 e9 76 3d 2a b3 a6 3c 8e 09 36 bc 57 49 bc 3b
       0.06028119 0.020349104 -0.011110676 0.0057460475
0002e0 b1 a4 b9 bd d3 60 78 3b 3a 82 c6 bd 2c 80 a4 bd
       -0.090646155 0.0037899509 -0.096928075 -0.08032259
0002f0 58 c9 06 bd b0 3d 55 3d 8f dd 91 3d dc 9c 90 bd
       -0.03290686 0.052060783 0.07122337 -0.070611686
000300 38 a9 a1 bd 8c 5a bb 3c bb 02 52 bd 72 2d 8c bd
       -0.07893604 0.022870325 -0.051272135 -0.068446055
000310 c8 f4 bf bd b9 eb ca 3c 1b b4 97 3d 33 90 b1 bd
       -0.0937286 0.024770604 0.07407399 -0.08670082
000320 eb 02 97 bd 6f 8d 59 3c 40 64 18 bd a2 8d 13 bd
       -0.073736034 0.013278349 -0.03720498 -0.036023743
000330 73 e1 a6 3b ee 55 37 bd db 0b 96 bd 05 2c 89 bd
       0.0050927936 -0.044759683 -0.0732648 -0.06697849
000340 34 52 97 bd 1d e2 21 bd 2d 90 5a 3d 82 dd ee 3c
       -0.07388726 -0.03952228 0.053360153 0.029158358
000350 33 14 8d bd c8 17 ff 3b e5 63 b1 bd 6e cc 81 3d
       -0.06888618 0.0077848174 -0.086616315 0.0633782
000360 4a be 98 3c f5 69 34 3d 44 af 9a bd 4b c4 71 3d
       0.018645424 0.04404636 -0.075529605 0.05902509
000370 28 4f 7e bd 01 33 3e 3d 93 c5 c0 bd 14 56 48 bd
       -0.062087208 0.04643536 -0.09412684 -0.048910215
000380 39 e7 7e bd d9 cc 1e 3d cf 05 61 3b a0 e6 8f 3d
       -0.06223223 0.038769577 0.0034335738 0.0702641
000390 76 75 f0 bc ca 75 1c 3d 30 08 93 bd 7b a4 91 3d
       -0.029352885 0.03819827 -0.07179296 0.0711145
0003a0 cf 4f 8b bc de e6 94 3b 71 59 02 3d ae fd f7 bc
       -0.01700583 0.004544123 0.03182358 -0.030272331
0003b0 ec 24 57 3d 13 c1 9f 3d 39 c2 8f 3d 47 22 3c 3d
       0.052525446 0.07800498 0.07019467 0.045931127
0003c0 b7 dd 1b 3d 7f 68 31 bd 47 ea af 3c 61 b1 40 bd
       0.03805324 -0.043312546 0.021474017 -0.04704416
0003d0 0e f5 63 3d 32 c8 8f 3d bb 5b 49 3d 1a 0a 8d bc
       0.055653624 0.07020606 0.049159747 -0.01721673
0003e0 12 18 04 be d1 06 03 bd 6c 05 78 3d 31 04 9b bd
       -0.12899807 -0.031988923 0.060552046 -0.07569159
0003f0 d7 ff 96 bd 0a 90 42 3d 65 07 4b 3d 35 0b 8d 3d
       -0.07373016 0.047500648 0.0495676 0.06886903

layers.1.nonlinear.0.bias f4 [128]
000000 60 31 80 3c 2e 57 68 3d 55 20 34 3d b0 fe 42 3d
       0.015648544 0.056723766 0.043976147 0.04760617
000010 b5 5e 95 3d 11 01 c3 3d e3 e7 9b bc 7c bd f9 bc
       0.072934546 0.09521688 -0.01903147 -0.030485861
000020 61 a5 c9 bc 90 29 2d bd 6e 00 2e bc dc fe 56 3b
       -0.024614992 -0.042275965 -0.01062022 0.0032805717
000030 97 99 e5 3c 05 db 10 3d 91 67 49 3d bb d3 e3 bc
       0.028027339 0.035365123 0.049171034 -0.027810922
000040 90 46 26 3d 84 15 8f bd 7d e5 90 b8 b9 07 47 3c
       0.040594637 -0.06986526 -6.9092006e-05 0.012147837
000050 05 54 3a 3c 2d 39 72 bd 6f 38 df 3b e3 8a 01 bd
       0.011372571 -0.05913656 0.0068121473 -0.031626593
000060 d7 e9 25 3d 13 14 a4 bc 50 86 32 3d 40 93 bb bd
       0.04050621 -0.020029103 0.04358512 -0.09158945
000070 ba 64 7d 3d 68 7c 46 3a b7 2d 91 bb c5 a1 ac 3d
       0.06186364 0.00075716386 -0.0044304985 0.084292926
000080 42 b3 86 bd 28 57 2a bc 14 28 81 bd aa 39 1a bd
       -0.065771595 -0.010396756 -0.063064724 -0.03765265
000090 bb 0d a7 3d f8 02 8e 3d 8c 4f ae 3d e1 fc 83 3d
       0.08156916 0.0693416 0.08511266 0.06444717
0000a0 6d 27 f7 bc f1 46 b3 3d 42 67 ee bc 16 ff a4 3d
       -0.030170167 0.087537654 -0.029101972 0.08056466
0000b0 0b aa f3 3c cc 9b c8 bd 96 49 3f 3d 8f f3 0d 3d
       0.029744169 -0.09795341 0.046701036 0.034656104
0000c0 58 22 49 3d f5 1e 95 3d b4 10 c4 3a ee 32 80 3d
       0.04910502 0.07281295 0.0014958591 0.06259714
0000d0 61 45 5a 3d 4b 5c 96 bd f0 e1 2b bd 79 18 18 3d
       0.05328882 -0.07341822 -0.041963518 0.037132714
0000e0 ed 4f 66 bd 12 b6 cd bc a8 61 d4 3c 5b 98 35 3d
       -0.056228567 -0.025111232 0.025925472 0.04433475
0000f0 25 dc 93 3d ae e9 40 ba 65 b3 c4 bc 3d 96 f7 bb
       0.072197236 -0.000735904 -0.024011323 -0.0075557516
000100 f8 0d 82 3c 94 16 be bd 5f d0 1e 3d 08 52 a0 bc
       0.015875801 -0.0928165 0.038772937 -0.019570366
000110 39 e3 4b 3d 32 a7 b3 bd fa e4 85 bd f8 58 62 bd
       0.049777243 -0.08772124 -0.065378144 -0.05526063
000120 ea b2 f3 3c 21 7b 2a bb cf b7 89 bd f7 ec 3d 3d
       0.029748399 -0.0026013332 -0.06724512 0.046368565
000130 46 97 ae bc 66 fb a1 bd fe 12 81 bd 76 5c b4 3d
       -0.021312367 -0.079092786 -0.063024506 0.08806698
000140 84 21 3a 3d 2e 99 56 3c 02 a2 a2 3d d0 db e3 3a
       0.04544212 0.013098044 0.07941057 0.0017384235
000150 ae ad 94 bc c0 f7 49 bd 12 b9 2a 3c 9e 8e bc 3d
       -0.018149223 -0.04930854 0.010420101 0.092068896
000160 e6 3d 79 3c 9a fb ad bd 9b 2d ee bc b1 c6 a7 3c
       0.015212512 -0.08495255 -0.02907448 0.020480486
000170 19 ee 9c 3d e7 7a ad 3d 5b 61 c4 3b 96 72 52 bd
       0.07662601 0.084707074 0.005993051 -0.05137881
000180 f1 77 34 3d 6b 4b 6a 3d 54 d8 d4 3c fc 2f a3 bd
       0.044059698 0.05720083 0.02598206 -0.07968137
000190 e5 42 c5 3d 5a 9d 78 bd 01 18 86 bc c1 76 0a bd
       0.096319 -0.060696937 -0.016368868 -0.03380466
0001a0 75 e7 a6 3d df c9 98 bd 29 7c 8e 3c 8f 77 61 3d
       0.08149616 -0.07460379 0.017393189 0.05504566
0001b0 fa 60 8e 3d fd 8c 99 3d c8 b5 56 bd 8c 74 9a bd
       0.069520906 0.074975945 -0.052419454 -0.07541761
0001c0 cf 6d 1c 3c 83 08 4b bd 69 54 98 3d 92 27 8f 3d
       0.009547665 -0.049568664 0.07437975 0.06989969
0001d0 ae ba 47 bd c3 52 5c 3d 36 be 89 3d a5 a6 a1 3d
       -0.048762016 0.053789865 0.06725733 0.07893113
0001e0 12 0b d4 3b fc fc 0e 3d b3 8b 9d 3c 74 98 79 3d
       0.0064710462 0.034909233 0.019231653 0.060936406
0001f0 8c 72 9f 3d fe 28 92 3d 82 15 4a 3d 6c ab 9b 3d
       0.0778552 0.07136725 0.049336918 0.076010555
